…
[2m[36m(pid=31008)[0m Summary   layers=75 , params=1893.3 K, inputs: (None, 8000, 11)
[2m[36m(pid=31008)[0m Model: "model"
[2m[36m(pid=31008)[0m _________________________________________________________________
[2m[36m(pid=31008)[0m Layer (type)                 Output Shape              Param #   
[2m[36m(pid=31008)[0m =================================================================
[2m[36m(pid=31008)[0m trace_8000 (InputLayer)      [(None, 8000, 11)]        0         
[2m[36m(pid=31008)[0m _________________________________________________________________
[2m[36m(pid=31008)[0m inp_BN_cast (BatchNormalizat (None, 8000, 11)          44        
[2m[36m(pid=31008)[0m _________________________________________________________________
[2m[36m(pid=31008)[0m cnn1_d16_k8 (Conv1D)         (None, 7993, 16)          1424      
[2m[36m(pid=31008)[0m _________________________________________________________________
[2m[36m(pid=31008)[0m aca1 (LeakyReLU)             (None, 7993, 16)          0         
[2m[36m(pid=31008)[0m _________________________________________________________________
[2m[36m(pid=31008)[0m cnn2_d16_k8 (Conv1D)         (None, 7986, 16)          2064      
[2m[36m(pid=31008)[0m _________________________________________________________________
[2m[36m(pid=31008)[0m aca2 (LeakyReLU)             (None, 7986, 16)          0         
[2m[36m(pid=31008)[0m _________________________________________________________________
[2m[36m(pid=31008)[0m cnn3_d16_k8 (Conv1D)         (None, 7979, 16)          2064      
[2m[36m(pid=31008)[0m _________________________________________________________________
[2m[36m(pid=31008)[0m aca3 (LeakyReLU)             (None, 7979, 16)          0         
[2m[36m(pid=31008)[0m _________________________________________________________________
[2m[36m(pid=31008)[0m cnn4_d16_k8 (Conv1D)         (None, 7972, 16)          2064      
[2m[36m(pid=31008)[0m _________________________________________________________________
[2m[36m(pid=31008)[0m aca4 (LeakyReLU)             (None, 7972, 16)          0         
[2m[36m(pid=31008)[0m _________________________________________________________________
[2m[36m(pid=31008)[0m cnn5_d16_k8 (Conv1D)         (None, 7965, 16)          2064      
[2m[36m(pid=31008)[0m _________________________________________________________________
[2m[36m(pid=31008)[0m aca5 (LeakyReLU)             (None, 7965, 16)          0         
[2m[36m(pid=31008)[0m _________________________________________________________________
[2m[36m(pid=31008)[0m cnn6_d16_k8 (Conv1D)         (None, 7958, 16)          2064      
[2m[36m(pid=31008)[0m _________________________________________________________________
[2m[36m(pid=31008)[0m aca6 (LeakyReLU)             (None, 7958, 16)          0         
[2m[36m(pid=31008)[0m _________________________________________________________________
[2m[36m(pid=31008)[0m cnn7_d16_k8 (Conv1D)         (None, 7951, 16)          2064      
[2m[36m(pid=31008)[0m _________________________________________________________________
[2m[36m(pid=31008)[0m aca7 (LeakyReLU)             (None, 7951, 16)          0         
[2m[36m(pid=31008)[0m _________________________________________________________________
[2m[36m(pid=31008)[0m pool_7 (MaxPooling1D)        (None, 2650, 16)          0         
[2m[36m(pid=31008)[0m _________________________________________________________________
[2m[36m(pid=31008)[0m cnn8_d64_k8 (Conv1D)         (None, 2643, 64)          8256      
[2m[36m(pid=31008)[0m _________________________________________________________________
[2m[36m(pid=31008)[0m aca8 (LeakyReLU)             (None, 2643, 64)          0         
[2m[36m(pid=31008)[0m _________________________________________________________________
[2m[36m(pid=31008)[0m cnn9_d64_k8 (Conv1D)         (None, 2636, 64)          32832     
[2m[36m(pid=31008)[0m _________________________________________________________________
[2m[36m(pid=31008)[0m aca9 (LeakyReLU)             (None, 2636, 64)          0         
[2m[36m(pid=31008)[0m _________________________________________________________________
[2m[36m(pid=31008)[0m cnn10_d64_k8 (Conv1D)        (None, 2629, 64)          32832     
[2m[36m(pid=31008)[0m _________________________________________________________________
[2m[36m(pid=31008)[0m aca10 (LeakyReLU)            (None, 2629, 64)          0         
[2m[36m(pid=31008)[0m _________________________________________________________________
[2m[36m(pid=31008)[0m cnn11_d64_k8 (Conv1D)        (None, 2622, 64)          32832     
[2m[36m(pid=31008)[0m _________________________________________________________________
[2m[36m(pid=31008)[0m aca11 (LeakyReLU)            (None, 2622, 64)          0         
[2m[36m(pid=31008)[0m _________________________________________________________________
[2m[36m(pid=31008)[0m cnn12_d64_k8 (Conv1D)        (None, 2615, 64)          32832     
[2m[36m(pid=31008)[0m _________________________________________________________________
[2m[36m(pid=31008)[0m aca12 (LeakyReLU)            (None, 2615, 64)          0         
[2m[36m(pid=31008)[0m _________________________________________________________________
[2m[36m(pid=31008)[0m cnn13_d64_k8 (Conv1D)        (None, 2608, 64)          32832     
[2m[36m(pid=31008)[0m _________________________________________________________________
[2m[36m(pid=31008)[0m aca13 (LeakyReLU)            (None, 2608, 64)          0         
[2m[36m(pid=31008)[0m _________________________________________________________________
[2m[36m(pid=31008)[0m cnn14_d64_k8 (Conv1D)        (None, 2601, 64)          32832     
[2m[36m(pid=31008)[0m _________________________________________________________________
[2m[36m(pid=31008)[0m aca14 (LeakyReLU)            (None, 2601, 64)          0         
[2m[36m(pid=31008)[0m _________________________________________________________________
[2m[36m(pid=31008)[0m pool_14 (MaxPooling1D)       (None, 867, 64)           0         
[2m[36m(pid=31008)[0m _________________________________________________________________
[2m[36m(pid=31008)[0m cnn15_d64_k8 (Conv1D)        (None, 860, 64)           32832     
[2m[36m(pid=31008)[0m _________________________________________________________________
[2m[36m(pid=31008)[0m aca15 (LeakyReLU)            (None, 860, 64)           0         
[2m[36m(pid=31008)[0m _________________________________________________________________
[2m[36m(pid=31008)[0m cnn16_d64_k8 (Conv1D)        (None, 853, 64)           32832     
[2m[36m(pid=31008)[0m _________________________________________________________________
[2m[36m(pid=31008)[0m aca16 (LeakyReLU)            (None, 853, 64)           0         
[2m[36m(pid=31008)[0m _________________________________________________________________
[2m[36m(pid=31008)[0m cnn17_d64_k8 (Conv1D)        (None, 846, 64)           32832     
[2m[36m(pid=31008)[0m _________________________________________________________________
[2m[36m(pid=31008)[0m aca17 (LeakyReLU)            (None, 846, 64)           0         
[2m[36m(pid=31008)[0m _________________________________________________________________
[2m[36m(pid=31008)[0m cnn18_d64_k8 (Conv1D)        (None, 839, 64)           32832     
[2m[36m(pid=31008)[0m _________________________________________________________________
[2m[36m(pid=31008)[0m aca18 (LeakyReLU)            (None, 839, 64)           0         
[2m[36m(pid=31008)[0m _________________________________________________________________
[2m[36m(pid=31008)[0m cnn19_d64_k8 (Conv1D)        (None, 832, 64)           32832     
[2m[36m(pid=31008)[0m _________________________________________________________________
[2m[36m(pid=31008)[0m aca19 (LeakyReLU)            (None, 832, 64)           0         
[2m[36m(pid=31008)[0m _________________________________________________________________
[2m[36m(pid=31008)[0m cnn20_d64_k8 (Conv1D)        (None, 825, 64)           32832     
[2m[36m(pid=31008)[0m _________________________________________________________________
[2m[36m(pid=31008)[0m aca20 (LeakyReLU)            (None, 825, 64)           0         
[2m[36m(pid=31008)[0m _________________________________________________________________
[2m[36m(pid=31008)[0m cnn21_d64_k8 (Conv1D)        (None, 818, 64)           32832     
[2m[36m(pid=31008)[0m _________________________________________________________________
[2m[36m(pid=31008)[0m aca21 (LeakyReLU)            (None, 818, 64)           0         
[2m[36m(pid=31008)[0m _________________________________________________________________
[2m[36m(pid=31008)[0m pool_21 (MaxPooling1D)       (None, 272, 64)           0         
[2m[36m(pid=31008)[0m _________________________________________________________________
[2m[36m(pid=31008)[0m cnn22_d64_k8 (Conv1D)        (None, 265, 64)           32832     
[2m[36m(pid=31008)[0m _________________________________________________________________
[2m[36m(pid=31008)[0m aca22 (LeakyReLU)            (None, 265, 64)           0         
[2m[36m(pid=31008)[0m _________________________________________________________________
[2m[36m(pid=31008)[0m cnn23_d64_k8 (Conv1D)        (None, 258, 64)           32832     
[2m[36m(pid=31008)[0m _________________________________________________________________
[2m[36m(pid=31008)[0m aca23 (LeakyReLU)            (None, 258, 64)           0         
[2m[36m(pid=31008)[0m _________________________________________________________________
[2m[36m(pid=31008)[0m cnn24_d64_k8 (Conv1D)        (None, 251, 64)           32832     
[2m[36m(pid=31008)[0m _________________________________________________________________
[2m[36m(pid=31008)[0m aca24 (LeakyReLU)            (None, 251, 64)           0         
[2m[36m(pid=31008)[0m _________________________________________________________________
[2m[36m(pid=31008)[0m cnn25_d64_k8 (Conv1D)        (None, 244, 64)           32832     
[2m[36m(pid=31008)[0m _________________________________________________________________
[2m[36m(pid=31008)[0m aca25 (LeakyReLU)            (None, 244, 64)           0         
[2m[36m(pid=31008)[0m _________________________________________________________________
[2m[36m(pid=31008)[0m cnn26_d64_k8 (Conv1D)        (None, 237, 64)           32832     
[2m[36m(pid=31008)[0m _________________________________________________________________
[2m[36m(pid=31008)[0m aca26 (LeakyReLU)            (None, 237, 64)           0         
[2m[36m(pid=31008)[0m _________________________________________________________________
[2m[36m(pid=31008)[0m cnn27_d64_k8 (Conv1D)        (None, 230, 64)           32832     
[2m[36m(pid=31008)[0m _________________________________________________________________
[2m[36m(pid=31008)[0m aca27 (LeakyReLU)            (None, 230, 64)           0         
[2m[36m(pid=31008)[0m _________________________________________________________________
[2m[36m(pid=31008)[0m cnn28_d64_k8 (Conv1D)        (None, 223, 64)           32832     
[2m[36m(pid=31008)[0m _________________________________________________________________
[2m[36m(pid=31008)[0m aca28 (LeakyReLU)            (None, 223, 64)           0         
[2m[36m(pid=31008)[0m _________________________________________________________________
[2m[36m(pid=31008)[0m pool_28 (MaxPooling1D)       (None, 74, 64)            0         
[2m[36m(pid=31008)[0m _________________________________________________________________
[2m[36m(pid=31008)[0m to_1d (Flatten)              (None, 4736)              0         
[2m[36m(pid=31008)[0m _________________________________________________________________
[2m[36m(pid=31008)[0m fdrop (Dropout)              (None, 4736)              0         
[2m[36m(pid=31008)[0m _________________________________________________________________
[2m[36m(pid=31008)[0m fc0 (Dense)                  (None, 248)               1174776   
[2m[36m(pid=31008)[0m _________________________________________________________________
[2m[36m(pid=31008)[0m acb0 (LeakyReLU)             (None, 248)               0         
[2m[36m(pid=31008)[0m _________________________________________________________________
[2m[36m(pid=31008)[0m drop0 (Dropout)              (None, 248)               0         
[2m[36m(pid=31008)[0m _________________________________________________________________
[2m[36m(pid=31008)[0m fc1 (Dense)                  (None, 124)               30876     
[2m[36m(pid=31008)[0m _________________________________________________________________
[2m[36m(pid=31008)[0m acb1 (LeakyReLU)             (None, 124)               0         
[2m[36m(pid=31008)[0m _________________________________________________________________
[2m[36m(pid=31008)[0m drop1 (Dropout)              (None, 124)               0         
[2m[36m(pid=31008)[0m _________________________________________________________________
[2m[36m(pid=31008)[0m fc2 (Dense)                  (None, 62)                7750      
[2m[36m(pid=31008)[0m _________________________________________________________________
[2m[36m(pid=31008)[0m acb2 (LeakyReLU)             (None, 62)                0         
[2m[36m(pid=31008)[0m _________________________________________________________________
[2m[36m(pid=31008)[0m drop2 (Dropout)              (None, 62)                0         
[2m[36m(pid=31008)[0m _________________________________________________________________
[2m[36m(pid=31008)[0m out_tanh (Dense)             (None, 18)                1134      
[2m[36m(pid=31008)[0m _________________________________________________________________
[2m[36m(pid=31008)[0m scaleAmpl_1.2 (Lambda)       (None, 18)                0         
[2m[36m(pid=31008)[0m =================================================================
[2m[36m(pid=31008)[0m Total params: 1,893,284
[2m[36m(pid=31008)[0m Trainable params: 1,893,262
[2m[36m(pid=31008)[0m Non-trainable params: 22
[2m[36m(pid=31008)[0m _________________________________________________________________
[2m[36m(pid=31008)[0m save model  to out//model_1/cellSpike.model.h5
…
[2m[36m(pid=31010)[0m Summary   layers=117 , params=1030143.6 K, inputs: (None, 8000, 11)
[2m[36m(pid=31010)[0m Model: "model"
[2m[36m(pid=31010)[0m _________________________________________________________________
[2m[36m(pid=31010)[0m Layer (type)                 Output Shape              Param #   
[2m[36m(pid=31010)[0m =================================================================
[2m[36m(pid=31010)[0m trace_8000 (InputLayer)      [(None, 8000, 11)]        0         
[2m[36m(pid=31010)[0m _________________________________________________________________
[2m[36m(pid=31010)[0m inp_BN_cast (BatchNormalizat (None, 8000, 11)          44        
[2m[36m(pid=31010)[0m _________________________________________________________________
[2m[36m(pid=31010)[0m cnn1_d32_k7 (Conv1D)         (None, 7994, 32)          2496      
[2m[36m(pid=31010)[0m _________________________________________________________________
[2m[36m(pid=31010)[0m aca1 (LeakyReLU)             (None, 7994, 32)          0         
[2m[36m(pid=31010)[0m _________________________________________________________________
[2m[36m(pid=31010)[0m cnn2_d32_k7 (Conv1D)         (None, 7988, 32)          7200      
[2m[36m(pid=31010)[0m _________________________________________________________________
[2m[36m(pid=31010)[0m aca2 (LeakyReLU)             (None, 7988, 32)          0         
[2m[36m(pid=31010)[0m _________________________________________________________________
[2m[36m(pid=31010)[0m cnn3_d32_k7 (Conv1D)         (None, 7982, 32)          7200      
[2m[36m(pid=31010)[0m _________________________________________________________________
[2m[36m(pid=31010)[0m aca3 (LeakyReLU)             (None, 7982, 32)          0         
[2m[36m(pid=31010)[0m _________________________________________________________________
[2m[36m(pid=31010)[0m cnn4_d32_k7 (Conv1D)         (None, 7976, 32)          7200      
[2m[36m(pid=31010)[0m _________________________________________________________________
[2m[36m(pid=31010)[0m aca4 (LeakyReLU)             (None, 7976, 32)          0         
[2m[36m(pid=31010)[0m _________________________________________________________________
[2m[36m(pid=31010)[0m cnn5_d32_k7 (Conv1D)         (None, 7970, 32)          7200      
[2m[36m(pid=31010)[0m _________________________________________________________________
[2m[36m(pid=31010)[0m aca5 (LeakyReLU)             (None, 7970, 32)          0         
[2m[36m(pid=31010)[0m _________________________________________________________________
[2m[36m(pid=31010)[0m cnn6_d32_k7 (Conv1D)         (None, 7964, 32)          7200      
[2m[36m(pid=31010)[0m _________________________________________________________________
[2m[36m(pid=31010)[0m aca6 (LeakyReLU)             (None, 7964, 32)          0         
[2m[36m(pid=31010)[0m _________________________________________________________________
[2m[36m(pid=31010)[0m cnn7_d32_k7 (Conv1D)         (None, 7958, 32)          7200      
[2m[36m(pid=31010)[0m _________________________________________________________________
[2m[36m(pid=31010)[0m aca7 (LeakyReLU)             (None, 7958, 32)          0         
[2m[36m(pid=31010)[0m _________________________________________________________________
[2m[36m(pid=31010)[0m pool_7 (MaxPooling1D)        (None, 7958, 32)          0         
[2m[36m(pid=31010)[0m _________________________________________________________________
[2m[36m(pid=31010)[0m cnn8_d128_k7 (Conv1D)        (None, 7952, 128)         28800     
[2m[36m(pid=31010)[0m _________________________________________________________________
[2m[36m(pid=31010)[0m aca8 (LeakyReLU)             (None, 7952, 128)         0         
[2m[36m(pid=31010)[0m _________________________________________________________________
[2m[36m(pid=31010)[0m cnn9_d128_k7 (Conv1D)        (None, 7946, 128)         114816    
[2m[36m(pid=31010)[0m _________________________________________________________________
[2m[36m(pid=31010)[0m aca9 (LeakyReLU)             (None, 7946, 128)         0         
[2m[36m(pid=31010)[0m _________________________________________________________________
[2m[36m(pid=31010)[0m cnn10_d128_k7 (Conv1D)       (None, 7940, 128)         114816    
[2m[36m(pid=31010)[0m _________________________________________________________________
[2m[36m(pid=31010)[0m aca10 (LeakyReLU)            (None, 7940, 128)         0         
[2m[36m(pid=31010)[0m _________________________________________________________________
[2m[36m(pid=31010)[0m cnn11_d128_k7 (Conv1D)       (None, 7934, 128)         114816    
[2m[36m(pid=31010)[0m _________________________________________________________________
[2m[36m(pid=31010)[0m aca11 (LeakyReLU)            (None, 7934, 128)         0         
[2m[36m(pid=31010)[0m _________________________________________________________________
[2m[36m(pid=31010)[0m cnn12_d128_k7 (Conv1D)       (None, 7928, 128)         114816    
[2m[36m(pid=31010)[0m _________________________________________________________________
[2m[36m(pid=31010)[0m aca12 (LeakyReLU)            (None, 7928, 128)         0         
[2m[36m(pid=31010)[0m _________________________________________________________________
[2m[36m(pid=31010)[0m cnn13_d128_k7 (Conv1D)       (None, 7922, 128)         114816    
[2m[36m(pid=31010)[0m _________________________________________________________________
[2m[36m(pid=31010)[0m aca13 (LeakyReLU)            (None, 7922, 128)         0         
[2m[36m(pid=31010)[0m _________________________________________________________________
[2m[36m(pid=31010)[0m cnn14_d128_k7 (Conv1D)       (None, 7916, 128)         114816    
[2m[36m(pid=31010)[0m _________________________________________________________________
[2m[36m(pid=31010)[0m aca14 (LeakyReLU)            (None, 7916, 128)         0         
[2m[36m(pid=31010)[0m _________________________________________________________________
[2m[36m(pid=31010)[0m pool_14 (MaxPooling1D)       (None, 7916, 128)         0         
[2m[36m(pid=31010)[0m _________________________________________________________________
[2m[36m(pid=31010)[0m cnn15_d256_k7 (Conv1D)       (None, 7910, 256)         229632    
[2m[36m(pid=31010)[0m _________________________________________________________________
[2m[36m(pid=31010)[0m aca15 (LeakyReLU)            (None, 7910, 256)         0         
[2m[36m(pid=31010)[0m _________________________________________________________________
[2m[36m(pid=31010)[0m cnn16_d256_k7 (Conv1D)       (None, 7904, 256)         459008    
[2m[36m(pid=31010)[0m _________________________________________________________________
[2m[36m(pid=31010)[0m aca16 (LeakyReLU)            (None, 7904, 256)         0         
[2m[36m(pid=31010)[0m _________________________________________________________________
[2m[36m(pid=31010)[0m cnn17_d256_k7 (Conv1D)       (None, 7898, 256)         459008    
[2m[36m(pid=31010)[0m _________________________________________________________________
[2m[36m(pid=31010)[0m aca17 (LeakyReLU)            (None, 7898, 256)         0         
[2m[36m(pid=31010)[0m _________________________________________________________________
[2m[36m(pid=31010)[0m cnn18_d256_k7 (Conv1D)       (None, 7892, 256)         459008    
[2m[36m(pid=31010)[0m _________________________________________________________________
[2m[36m(pid=31010)[0m aca18 (LeakyReLU)            (None, 7892, 256)         0         
[2m[36m(pid=31010)[0m _________________________________________________________________
[2m[36m(pid=31010)[0m cnn19_d256_k7 (Conv1D)       (None, 7886, 256)         459008    
[2m[36m(pid=31010)[0m _________________________________________________________________
[2m[36m(pid=31010)[0m aca19 (LeakyReLU)            (None, 7886, 256)         0         
[2m[36m(pid=31010)[0m _________________________________________________________________
[2m[36m(pid=31010)[0m cnn20_d256_k7 (Conv1D)       (None, 7880, 256)         459008    
[2m[36m(pid=31010)[0m _________________________________________________________________
[2m[36m(pid=31010)[0m aca20 (LeakyReLU)            (None, 7880, 256)         0         
[2m[36m(pid=31010)[0m _________________________________________________________________
[2m[36m(pid=31010)[0m cnn21_d256_k7 (Conv1D)       (None, 7874, 256)         459008    
[2m[36m(pid=31010)[0m _________________________________________________________________
[2m[36m(pid=31010)[0m aca21 (LeakyReLU)            (None, 7874, 256)         0         
[2m[36m(pid=31010)[0m _________________________________________________________________
[2m[36m(pid=31010)[0m pool_21 (MaxPooling1D)       (None, 7874, 256)         0         
[2m[36m(pid=31010)[0m _________________________________________________________________
[2m[36m(pid=31010)[0m cnn22_d256_k7 (Conv1D)       (None, 7868, 256)         459008    
[2m[36m(pid=31010)[0m _________________________________________________________________
[2m[36m(pid=31010)[0m aca22 (LeakyReLU)            (None, 7868, 256)         0         
[2m[36m(pid=31010)[0m _________________________________________________________________
[2m[36m(pid=31010)[0m cnn23_d256_k7 (Conv1D)       (None, 7862, 256)         459008    
[2m[36m(pid=31010)[0m _________________________________________________________________
[2m[36m(pid=31010)[0m aca23 (LeakyReLU)            (None, 7862, 256)         0         
[2m[36m(pid=31010)[0m _________________________________________________________________
[2m[36m(pid=31010)[0m cnn24_d256_k7 (Conv1D)       (None, 7856, 256)         459008    
[2m[36m(pid=31010)[0m _________________________________________________________________
[2m[36m(pid=31010)[0m aca24 (LeakyReLU)            (None, 7856, 256)         0         
[2m[36m(pid=31010)[0m _________________________________________________________________
[2m[36m(pid=31010)[0m cnn25_d256_k7 (Conv1D)       (None, 7850, 256)         459008    
[2m[36m(pid=31010)[0m _________________________________________________________________
[2m[36m(pid=31010)[0m aca25 (LeakyReLU)            (None, 7850, 256)         0         
[2m[36m(pid=31010)[0m _________________________________________________________________
[2m[36m(pid=31010)[0m cnn26_d256_k7 (Conv1D)       (None, 7844, 256)         459008    
[2m[36m(pid=31010)[0m _________________________________________________________________
[2m[36m(pid=31010)[0m aca26 (LeakyReLU)            (None, 7844, 256)         0         
[2m[36m(pid=31010)[0m _________________________________________________________________
[2m[36m(pid=31010)[0m cnn27_d256_k7 (Conv1D)       (None, 7838, 256)         459008    
[2m[36m(pid=31010)[0m _________________________________________________________________
[2m[36m(pid=31010)[0m aca27 (LeakyReLU)            (None, 7838, 256)         0         
[2m[36m(pid=31010)[0m _________________________________________________________________
[2m[36m(pid=31010)[0m cnn28_d256_k7 (Conv1D)       (None, 7832, 256)         459008    
[2m[36m(pid=31010)[0m _________________________________________________________________
[2m[36m(pid=31010)[0m aca28 (LeakyReLU)            (None, 7832, 256)         0         
[2m[36m(pid=31010)[0m _________________________________________________________________
[2m[36m(pid=31010)[0m pool_28 (MaxPooling1D)       (None, 7832, 256)         0         
[2m[36m(pid=31010)[0m _________________________________________________________________
[2m[36m(pid=31010)[0m cnn29_d256_k7 (Conv1D)       (None, 7826, 256)         459008    
[2m[36m(pid=31010)[0m _________________________________________________________________
[2m[36m(pid=31010)[0m aca29 (LeakyReLU)            (None, 7826, 256)         0         
[2m[36m(pid=31010)[0m _________________________________________________________________
[2m[36m(pid=31010)[0m cnn30_d256_k7 (Conv1D)       (None, 7820, 256)         459008    
[2m[36m(pid=31010)[0m _________________________________________________________________
[2m[36m(pid=31010)[0m aca30 (LeakyReLU)            (None, 7820, 256)         0         
[2m[36m(pid=31010)[0m _________________________________________________________________
[2m[36m(pid=31010)[0m cnn31_d256_k7 (Conv1D)       (None, 7814, 256)         459008    
[2m[36m(pid=31010)[0m _________________________________________________________________
[2m[36m(pid=31010)[0m aca31 (LeakyReLU)            (None, 7814, 256)         0         
[2m[36m(pid=31010)[0m _________________________________________________________________
[2m[36m(pid=31010)[0m cnn32_d256_k7 (Conv1D)       (None, 7808, 256)         459008    
[2m[36m(pid=31010)[0m _________________________________________________________________
[2m[36m(pid=31010)[0m aca32 (LeakyReLU)            (None, 7808, 256)         0         
[2m[36m(pid=31010)[0m _________________________________________________________________
[2m[36m(pid=31010)[0m cnn33_d256_k7 (Conv1D)       (None, 7802, 256)         459008    
[2m[36m(pid=31010)[0m _________________________________________________________________
[2m[36m(pid=31010)[0m aca33 (LeakyReLU)            (None, 7802, 256)         0         
[2m[36m(pid=31010)[0m _________________________________________________________________
[2m[36m(pid=31010)[0m cnn34_d256_k7 (Conv1D)       (None, 7796, 256)         459008    
[2m[36m(pid=31010)[0m _________________________________________________________________
[2m[36m(pid=31010)[0m aca34 (LeakyReLU)            (None, 7796, 256)         0         
[2m[36m(pid=31010)[0m _________________________________________________________________
[2m[36m(pid=31010)[0m cnn35_d256_k7 (Conv1D)       (None, 7790, 256)         459008    
[2m[36m(pid=31010)[0m _________________________________________________________________
[2m[36m(pid=31010)[0m aca35 (LeakyReLU)            (None, 7790, 256)         0         
[2m[36m(pid=31010)[0m _________________________________________________________________
[2m[36m(pid=31010)[0m pool_35 (MaxPooling1D)       (None, 7790, 256)         0         
[2m[36m(pid=31010)[0m _________________________________________________________________
[2m[36m(pid=31010)[0m cnn36_d256_k7 (Conv1D)       (None, 7784, 256)         459008    
[2m[36m(pid=31010)[0m _________________________________________________________________
[2m[36m(pid=31010)[0m aca36 (LeakyReLU)            (None, 7784, 256)         0         
[2m[36m(pid=31010)[0m _________________________________________________________________
[2m[36m(pid=31010)[0m cnn37_d256_k7 (Conv1D)       (None, 7778, 256)         459008    
[2m[36m(pid=31010)[0m _________________________________________________________________
[2m[36m(pid=31010)[0m aca37 (LeakyReLU)            (None, 7778, 256)         0         
[2m[36m(pid=31010)[0m _________________________________________________________________
[2m[36m(pid=31010)[0m cnn38_d256_k7 (Conv1D)       (None, 7772, 256)         459008    
[2m[36m(pid=31010)[0m _________________________________________________________________
[2m[36m(pid=31010)[0m aca38 (LeakyReLU)            (None, 7772, 256)         0         
[2m[36m(pid=31010)[0m _________________________________________________________________
[2m[36m(pid=31010)[0m cnn39_d256_k7 (Conv1D)       (None, 7766, 256)         459008    
[2m[36m(pid=31010)[0m _________________________________________________________________
[2m[36m(pid=31010)[0m aca39 (LeakyReLU)            (None, 7766, 256)         0         
[2m[36m(pid=31010)[0m _________________________________________________________________
[2m[36m(pid=31010)[0m cnn40_d256_k7 (Conv1D)       (None, 7760, 256)         459008    
[2m[36m(pid=31010)[0m _________________________________________________________________
[2m[36m(pid=31010)[0m aca40 (LeakyReLU)            (None, 7760, 256)         0         
[2m[36m(pid=31010)[0m _________________________________________________________________
[2m[36m(pid=31010)[0m cnn41_d256_k7 (Conv1D)       (None, 7754, 256)         459008    
[2m[36m(pid=31010)[0m _________________________________________________________________
[2m[36m(pid=31010)[0m aca41 (LeakyReLU)            (None, 7754, 256)         0         
[2m[36m(pid=31010)[0m _________________________________________________________________
[2m[36m(pid=31010)[0m cnn42_d256_k7 (Conv1D)       (None, 7748, 256)         459008    
[2m[36m(pid=31010)[0m _________________________________________________________________
[2m[36m(pid=31010)[0m aca42 (LeakyReLU)            (None, 7748, 256)         0         
[2m[36m(pid=31010)[0m _________________________________________________________________
[2m[36m(pid=31010)[0m pool_42 (MaxPooling1D)       (None, 7748, 256)         0         
[2m[36m(pid=31010)[0m _________________________________________________________________
[2m[36m(pid=31010)[0m to_1d (Flatten)              (None, 1983488)           0         
[2m[36m(pid=31010)[0m _________________________________________________________________
[2m[36m(pid=31010)[0m fdrop (Dropout)              (None, 1983488)           0         
[2m[36m(pid=31010)[0m _________________________________________________________________
[2m[36m(pid=31010)[0m fc0 (Dense)                  (None, 512)               1015546368
[2m[36m(pid=31010)[0m _________________________________________________________________
[2m[36m(pid=31010)[0m acb0 (LeakyReLU)             (None, 512)               0         
[2m[36m(pid=31010)[0m _________________________________________________________________
[2m[36m(pid=31010)[0m drop0 (Dropout)              (None, 512)               0         
[2m[36m(pid=31010)[0m _________________________________________________________________
[2m[36m(pid=31010)[0m fc1 (Dense)                  (None, 512)               262656    
[2m[36m(pid=31010)[0m _________________________________________________________________
[2m[36m(pid=31010)[0m acb1 (LeakyReLU)             (None, 512)               0         
[2m[36m(pid=31010)[0m _________________________________________________________________
[2m[36m(pid=31010)[0m drop1 (Dropout)              (None, 512)               0         
[2m[36m(pid=31010)[0m _________________________________________________________________
[2m[36m(pid=31010)[0m fc2 (Dense)                  (None, 512)               262656    
[2m[36m(pid=31010)[0m _________________________________________________________________
[2m[36m(pid=31010)[0m acb2 (LeakyReLU)             (None, 512)               0         
[2m[36m(pid=31010)[0m _________________________________________________________________
[2m[36m(pid=31010)[0m drop2 (Dropout)              (None, 512)               0         
[2m[36m(pid=31010)[0m _________________________________________________________________
[2m[36m(pid=31010)[0m fc3 (Dense)                  (None, 512)               262656    
[2m[36m(pid=31010)[0m _________________________________________________________________
[2m[36m(pid=31010)[0m acb3 (LeakyReLU)             (None, 512)               0         
[2m[36m(pid=31010)[0m _________________________________________________________________
[2m[36m(pid=31010)[0m drop3 (Dropout)              (None, 512)               0         
[2m[36m(pid=31010)[0m _________________________________________________________________
[2m[36m(pid=31010)[0m fc4 (Dense)                  (None, 512)               262656    
[2m[36m(pid=31010)[0m _________________________________________________________________
[2m[36m(pid=31010)[0m acb4 (LeakyReLU)             (None, 512)               0         
[2m[36m(pid=31010)[0m _________________________________________________________________
[2m[36m(pid=31010)[0m drop4 (Dropout)              (None, 512)               0         
[2m[36m(pid=31010)[0m _________________________________________________________________
[2m[36m(pid=31010)[0m fc5 (Dense)                  (None, 248)               127224    
[2m[36m(pid=31010)[0m _________________________________________________________________
[2m[36m(pid=31010)[0m acb5 (LeakyReLU)             (None, 248)               0         
[2m[36m(pid=31010)[0m _________________________________________________________________
[2m[36m(pid=31010)[0m drop5 (Dropout)              (None, 248)               0         
[2m[36m(pid=31010)[0m _________________________________________________________________
[2m[36m(pid=31010)[0m fc6 (Dense)                  (None, 124)               30876     
[2m[36m(pid=31010)[0m _________________________________________________________________
[2m[36m(pid=31010)[0m acb6 (LeakyReLU)             (None, 124)               0         
[2m[36m(pid=31010)[0m _________________________________________________________________
[2m[36m(pid=31010)[0m drop6 (Dropout)              (None, 124)               0         
[2m[36m(pid=31010)[0m _________________________________________________________________
[2m[36m(pid=31010)[0m out_tanh (Dense)             (None, 18)                2250      
[2m[36m(pid=31010)[0m _________________________________________________________________
[2m[36m(pid=31010)[0m scaleAmpl_1.2 (Lambda)       (None, 18)                0         
[2m[36m(pid=31010)[0m =================================================================
[2m[36m(pid=31010)[0m Total params: 1,030,143,626
[2m[36m(pid=31010)[0m Trainable params: 1,030,143,604
[2m[36m(pid=31010)[0m Non-trainable params: 22
[2m[36m(pid=31010)[0m _________________________________________________________________
[2m[36m(pid=31010)[0m save model  to out//model_1/cellSpike.model.h5
…
[2m[36m(pid=31032)[0m Summary   layers=66 , params=2756.3 K, inputs: (None, 8000, 11)
[2m[36m(pid=31032)[0m Model: "model"
[2m[36m(pid=31032)[0m _________________________________________________________________
[2m[36m(pid=31032)[0m Layer (type)                 Output Shape              Param #   
[2m[36m(pid=31032)[0m =================================================================
[2m[36m(pid=31032)[0m trace_8000 (InputLayer)      [(None, 8000, 11)]        0         
[2m[36m(pid=31032)[0m _________________________________________________________________
[2m[36m(pid=31032)[0m inp_BN_cast (BatchNormalizat (None, 8000, 11)          44        
[2m[36m(pid=31032)[0m _________________________________________________________________
[2m[36m(pid=31032)[0m cnn1_d32_k9 (Conv1D)         (None, 7992, 32)          3200      
[2m[36m(pid=31032)[0m _________________________________________________________________
[2m[36m(pid=31032)[0m aca1 (LeakyReLU)             (None, 7992, 32)          0         
[2m[36m(pid=31032)[0m _________________________________________________________________
[2m[36m(pid=31032)[0m cnn2_d32_k9 (Conv1D)         (None, 7984, 32)          9248      
[2m[36m(pid=31032)[0m _________________________________________________________________
[2m[36m(pid=31032)[0m aca2 (LeakyReLU)             (None, 7984, 32)          0         
[2m[36m(pid=31032)[0m _________________________________________________________________
[2m[36m(pid=31032)[0m cnn3_d32_k9 (Conv1D)         (None, 7976, 32)          9248      
[2m[36m(pid=31032)[0m _________________________________________________________________
[2m[36m(pid=31032)[0m aca3 (LeakyReLU)             (None, 7976, 32)          0         
[2m[36m(pid=31032)[0m _________________________________________________________________
[2m[36m(pid=31032)[0m cnn4_d32_k9 (Conv1D)         (None, 7968, 32)          9248      
[2m[36m(pid=31032)[0m _________________________________________________________________
[2m[36m(pid=31032)[0m aca4 (LeakyReLU)             (None, 7968, 32)          0         
[2m[36m(pid=31032)[0m _________________________________________________________________
[2m[36m(pid=31032)[0m cnn5_d32_k9 (Conv1D)         (None, 7960, 32)          9248      
[2m[36m(pid=31032)[0m _________________________________________________________________
[2m[36m(pid=31032)[0m aca5 (LeakyReLU)             (None, 7960, 32)          0         
[2m[36m(pid=31032)[0m _________________________________________________________________
[2m[36m(pid=31032)[0m cnn6_d32_k9 (Conv1D)         (None, 7952, 32)          9248      
[2m[36m(pid=31032)[0m _________________________________________________________________
[2m[36m(pid=31032)[0m aca6 (LeakyReLU)             (None, 7952, 32)          0         
[2m[36m(pid=31032)[0m _________________________________________________________________
[2m[36m(pid=31032)[0m cnn7_d32_k9 (Conv1D)         (None, 7944, 32)          9248      
[2m[36m(pid=31032)[0m _________________________________________________________________
[2m[36m(pid=31032)[0m aca7 (LeakyReLU)             (None, 7944, 32)          0         
[2m[36m(pid=31032)[0m _________________________________________________________________
[2m[36m(pid=31032)[0m cnn8_d32_k9 (Conv1D)         (None, 7936, 32)          9248      
[2m[36m(pid=31032)[0m _________________________________________________________________
[2m[36m(pid=31032)[0m aca8 (LeakyReLU)             (None, 7936, 32)          0         
[2m[36m(pid=31032)[0m _________________________________________________________________
[2m[36m(pid=31032)[0m pool_8 (MaxPooling1D)        (None, 2645, 32)          0         
[2m[36m(pid=31032)[0m _________________________________________________________________
[2m[36m(pid=31032)[0m cnn9_d64_k9 (Conv1D)         (None, 2637, 64)          18496     
[2m[36m(pid=31032)[0m _________________________________________________________________
[2m[36m(pid=31032)[0m aca9 (LeakyReLU)             (None, 2637, 64)          0         
[2m[36m(pid=31032)[0m _________________________________________________________________
[2m[36m(pid=31032)[0m cnn10_d64_k9 (Conv1D)        (None, 2629, 64)          36928     
[2m[36m(pid=31032)[0m _________________________________________________________________
[2m[36m(pid=31032)[0m aca10 (LeakyReLU)            (None, 2629, 64)          0         
[2m[36m(pid=31032)[0m _________________________________________________________________
[2m[36m(pid=31032)[0m cnn11_d64_k9 (Conv1D)        (None, 2621, 64)          36928     
[2m[36m(pid=31032)[0m _________________________________________________________________
[2m[36m(pid=31032)[0m aca11 (LeakyReLU)            (None, 2621, 64)          0         
[2m[36m(pid=31032)[0m _________________________________________________________________
[2m[36m(pid=31032)[0m cnn12_d64_k9 (Conv1D)        (None, 2613, 64)          36928     
[2m[36m(pid=31032)[0m _________________________________________________________________
[2m[36m(pid=31032)[0m aca12 (LeakyReLU)            (None, 2613, 64)          0         
[2m[36m(pid=31032)[0m _________________________________________________________________
[2m[36m(pid=31032)[0m cnn13_d64_k9 (Conv1D)        (None, 2605, 64)          36928     
[2m[36m(pid=31032)[0m _________________________________________________________________
[2m[36m(pid=31032)[0m aca13 (LeakyReLU)            (None, 2605, 64)          0         
[2m[36m(pid=31032)[0m _________________________________________________________________
[2m[36m(pid=31032)[0m cnn14_d64_k9 (Conv1D)        (None, 2597, 64)          36928     
[2m[36m(pid=31032)[0m _________________________________________________________________
[2m[36m(pid=31032)[0m aca14 (LeakyReLU)            (None, 2597, 64)          0         
[2m[36m(pid=31032)[0m _________________________________________________________________
[2m[36m(pid=31032)[0m cnn15_d64_k9 (Conv1D)        (None, 2589, 64)          36928     
[2m[36m(pid=31032)[0m _________________________________________________________________
[2m[36m(pid=31032)[0m aca15 (LeakyReLU)            (None, 2589, 64)          0         
[2m[36m(pid=31032)[0m _________________________________________________________________
[2m[36m(pid=31032)[0m cnn16_d64_k9 (Conv1D)        (None, 2581, 64)          36928     
[2m[36m(pid=31032)[0m _________________________________________________________________
[2m[36m(pid=31032)[0m aca16 (LeakyReLU)            (None, 2581, 64)          0         
[2m[36m(pid=31032)[0m _________________________________________________________________
[2m[36m(pid=31032)[0m pool_16 (MaxPooling1D)       (None, 860, 64)           0         
[2m[36m(pid=31032)[0m _________________________________________________________________
[2m[36m(pid=31032)[0m cnn17_d64_k9 (Conv1D)        (None, 852, 64)           36928     
[2m[36m(pid=31032)[0m _________________________________________________________________
[2m[36m(pid=31032)[0m aca17 (LeakyReLU)            (None, 852, 64)           0         
[2m[36m(pid=31032)[0m _________________________________________________________________
[2m[36m(pid=31032)[0m cnn18_d64_k9 (Conv1D)        (None, 844, 64)           36928     
[2m[36m(pid=31032)[0m _________________________________________________________________
[2m[36m(pid=31032)[0m aca18 (LeakyReLU)            (None, 844, 64)           0         
[2m[36m(pid=31032)[0m _________________________________________________________________
[2m[36m(pid=31032)[0m cnn19_d64_k9 (Conv1D)        (None, 836, 64)           36928     
[2m[36m(pid=31032)[0m _________________________________________________________________
[2m[36m(pid=31032)[0m aca19 (LeakyReLU)            (None, 836, 64)           0         
[2m[36m(pid=31032)[0m _________________________________________________________________
[2m[36m(pid=31032)[0m cnn20_d64_k9 (Conv1D)        (None, 828, 64)           36928     
[2m[36m(pid=31032)[0m _________________________________________________________________
[2m[36m(pid=31032)[0m aca20 (LeakyReLU)            (None, 828, 64)           0         
[2m[36m(pid=31032)[0m _________________________________________________________________
[2m[36m(pid=31032)[0m cnn21_d64_k9 (Conv1D)        (None, 820, 64)           36928     
[2m[36m(pid=31032)[0m _________________________________________________________________
[2m[36m(pid=31032)[0m aca21 (LeakyReLU)            (None, 820, 64)           0         
[2m[36m(pid=31032)[0m _________________________________________________________________
[2m[36m(pid=31032)[0m cnn22_d64_k9 (Conv1D)        (None, 812, 64)           36928     
[2m[36m(pid=31032)[0m _________________________________________________________________
[2m[36m(pid=31032)[0m aca22 (LeakyReLU)            (None, 812, 64)           0         
[2m[36m(pid=31032)[0m _________________________________________________________________
[2m[36m(pid=31032)[0m cnn23_d64_k9 (Conv1D)        (None, 804, 64)           36928     
[2m[36m(pid=31032)[0m _________________________________________________________________
[2m[36m(pid=31032)[0m aca23 (LeakyReLU)            (None, 804, 64)           0         
[2m[36m(pid=31032)[0m _________________________________________________________________
[2m[36m(pid=31032)[0m cnn24_d64_k9 (Conv1D)        (None, 796, 64)           36928     
[2m[36m(pid=31032)[0m _________________________________________________________________
[2m[36m(pid=31032)[0m aca24 (LeakyReLU)            (None, 796, 64)           0         
[2m[36m(pid=31032)[0m _________________________________________________________________
[2m[36m(pid=31032)[0m pool_24 (MaxPooling1D)       (None, 265, 64)           0         
[2m[36m(pid=31032)[0m _________________________________________________________________
[2m[36m(pid=31032)[0m to_1d (Flatten)              (None, 16960)             0         
[2m[36m(pid=31032)[0m _________________________________________________________________
[2m[36m(pid=31032)[0m fdrop (Dropout)              (None, 16960)             0         
[2m[36m(pid=31032)[0m _________________________________________________________________
[2m[36m(pid=31032)[0m fc0 (Dense)                  (None, 124)               2103164   
[2m[36m(pid=31032)[0m _________________________________________________________________
[2m[36m(pid=31032)[0m acb0 (LeakyReLU)             (None, 124)               0         
[2m[36m(pid=31032)[0m _________________________________________________________________
[2m[36m(pid=31032)[0m drop0 (Dropout)              (None, 124)               0         
[2m[36m(pid=31032)[0m _________________________________________________________________
[2m[36m(pid=31032)[0m fc1 (Dense)                  (None, 62)                7750      
[2m[36m(pid=31032)[0m _________________________________________________________________
[2m[36m(pid=31032)[0m acb1 (LeakyReLU)             (None, 62)                0         
[2m[36m(pid=31032)[0m _________________________________________________________________
[2m[36m(pid=31032)[0m drop1 (Dropout)              (None, 62)                0         
[2m[36m(pid=31032)[0m _________________________________________________________________
[2m[36m(pid=31032)[0m fc2 (Dense)                  (None, 62)                3906      
[2m[36m(pid=31032)[0m _________________________________________________________________
[2m[36m(pid=31032)[0m acb2 (LeakyReLU)             (None, 62)                0         
[2m[36m(pid=31032)[0m _________________________________________________________________
[2m[36m(pid=31032)[0m drop2 (Dropout)              (None, 62)                0         
[2m[36m(pid=31032)[0m _________________________________________________________________
[2m[36m(pid=31032)[0m out_tanh (Dense)             (None, 18)                1134      
[2m[36m(pid=31032)[0m _________________________________________________________________
[2m[36m(pid=31032)[0m scaleAmpl_1.2 (Lambda)       (None, 18)                0         
[2m[36m(pid=31032)[0m =================================================================
[2m[36m(pid=31032)[0m Total params: 2,756,350
[2m[36m(pid=31032)[0m Trainable params: 2,756,328
[2m[36m(pid=31032)[0m Non-trainable params: 22
[2m[36m(pid=31032)[0m _________________________________________________________________
[2m[36m(pid=31032)[0m save model  to out//model_1/cellSpike.model.h5
…
