…
298765780917, 'steps': None} False
build_model_cnn inpA: (None, 8000, 11)  dropFrac= 0.01
build_model: loss= mse  opt= ['nadam', 0.001, 1.1e-07]  out: (None, 18)

Summary   layers=33 , params=608.1 K, inputs: (None, 8000, 11)
Model: "model"
_________________________________________________________________
Layer (type)                 Output Shape              Param #   
=================================================================
trace_8000 (InputLayer)      [(None, 8000, 11)]        0         
_________________________________________________________________
inp_BN_cast (BatchNormalizat (None, 8000, 11)          44        
_________________________________________________________________
cnn1_d32_k7 (Conv1D)         (None, 7994, 32)          2496      
_________________________________________________________________
aca1 (LeakyReLU)             (None, 7994, 32)          0         
_________________________________________________________________
pool_1 (MaxPooling1D)        (None, 2664, 32)          0         
_________________________________________________________________
cnn2_d64_k7 (Conv1D)         (None, 2658, 64)          14400     
_________________________________________________________________
aca2 (LeakyReLU)             (None, 2658, 64)          0         
_________________________________________________________________
pool_2 (MaxPooling1D)        (None, 886, 64)           0         
_________________________________________________________________
cnn3_d64_k7 (Conv1D)         (None, 880, 64)           28736     
_________________________________________________________________
aca3 (LeakyReLU)             (None, 880, 64)           0         
_________________________________________________________________
pool_3 (MaxPooling1D)        (None, 293, 64)           0         
_________________________________________________________________
cnn4_d64_k7 (Conv1D)         (None, 287, 64)           28736     
_________________________________________________________________
aca4 (LeakyReLU)             (None, 287, 64)           0         
_________________________________________________________________
pool_4 (MaxPooling1D)        (None, 95, 64)            0         
_________________________________________________________________
cnn5_d128_k7 (Conv1D)        (None, 89, 128)           57472     
_________________________________________________________________
aca5 (LeakyReLU)             (None, 89, 128)           0         
_________________________________________________________________
pool_5 (MaxPooling1D)        (None, 29, 128)           0         
_________________________________________________________________
cnn6_d128_k7 (Conv1D)        (None, 23, 128)           114816    
_________________________________________________________________
aca6 (LeakyReLU)             (None, 23, 128)           0         
_________________________________________________________________
pool_6 (MaxPooling1D)        (None, 7, 128)            0         
_________________________________________________________________
to_1d (Flatten)              (None, 896)               0         
_________________________________________________________________
fdrop (Dropout)              (None, 896)               0         
_________________________________________________________________
fc0 (Dense)                  (None, 256)               229632    
_________________________________________________________________
acb0 (LeakyReLU)             (None, 256)               0         
_________________________________________________________________
drop0 (Dropout)              (None, 256)               0         
_________________________________________________________________
fc1 (Dense)                  (None, 256)               65792     
_________________________________________________________________
acb1 (LeakyReLU)             (None, 256)               0         
_________________________________________________________________
drop1 (Dropout)              (None, 256)               0         
_________________________________________________________________
fc2 (Dense)                  (None, 240)               61680     
_________________________________________________________________
acb2 (LeakyReLU)             (None, 240)               0         
_________________________________________________________________
drop2 (Dropout)              (None, 240)               0         
_________________________________________________________________
out_tanh (Dense)             (None, 18)                4338      
_________________________________________________________________
scaleAmpl_1.2 (Lambda)       (None, 18)                0         
=================================================================
Total params: 608,142
Trainable params: 608,120
Non-trainable params: 22
_________________________________________________________________
save model  to out/0_bbp153//cellSpike.model.h5
  closed  yaml: out/0_bbp153/cellSpike.sum_train.yaml  size=1.3 kB   elaT=0.0 sec
train silently 
enable  end-epoch true train-loss as callBack
…
