…
[2m[36m(pid=12090)[0m Summary   layers=33 , params=131867.8 K, inputs: (None, 8000, 11)
[2m[36m(pid=12090)[0m Model: "model"
[2m[36m(pid=12090)[0m _________________________________________________________________
[2m[36m(pid=12090)[0m Layer (type)                 Output Shape              Param #   
[2m[36m(pid=12090)[0m =================================================================
[2m[36m(pid=12090)[0m trace_8000 (InputLayer)      [(None, 8000, 11)]        0         
[2m[36m(pid=12090)[0m _________________________________________________________________
[2m[36m(pid=12090)[0m inp_BN_cast (BatchNormalizat (None, 8000, 11)          44        
[2m[36m(pid=12090)[0m _________________________________________________________________
[2m[36m(pid=12090)[0m cnn1_d128_k4 (Conv1D)        (None, 7997, 128)         5760      
[2m[36m(pid=12090)[0m _________________________________________________________________
[2m[36m(pid=12090)[0m aca1 (LeakyReLU)             (None, 7997, 128)         0         
[2m[36m(pid=12090)[0m _________________________________________________________________
[2m[36m(pid=12090)[0m cnn2_d128_k4 (Conv1D)        (None, 7994, 128)         65664     
[2m[36m(pid=12090)[0m _________________________________________________________________
[2m[36m(pid=12090)[0m aca2 (LeakyReLU)             (None, 7994, 128)         0         
[2m[36m(pid=12090)[0m _________________________________________________________________
[2m[36m(pid=12090)[0m cnn3_d128_k4 (Conv1D)        (None, 7991, 128)         65664     
[2m[36m(pid=12090)[0m _________________________________________________________________
[2m[36m(pid=12090)[0m aca3 (LeakyReLU)             (None, 7991, 128)         0         
[2m[36m(pid=12090)[0m _________________________________________________________________
[2m[36m(pid=12090)[0m pool_3 (MaxPooling1D)        (None, 3995, 128)         0         
[2m[36m(pid=12090)[0m _________________________________________________________________
[2m[36m(pid=12090)[0m cnn4_d256_k4 (Conv1D)        (None, 3992, 256)         131328    
[2m[36m(pid=12090)[0m _________________________________________________________________
[2m[36m(pid=12090)[0m aca4 (LeakyReLU)             (None, 3992, 256)         0         
[2m[36m(pid=12090)[0m _________________________________________________________________
[2m[36m(pid=12090)[0m cnn5_d256_k4 (Conv1D)        (None, 3989, 256)         262400    
[2m[36m(pid=12090)[0m _________________________________________________________________
[2m[36m(pid=12090)[0m aca5 (LeakyReLU)             (None, 3989, 256)         0         
[2m[36m(pid=12090)[0m _________________________________________________________________
[2m[36m(pid=12090)[0m cnn6_d256_k4 (Conv1D)        (None, 3986, 256)         262400    
[2m[36m(pid=12090)[0m _________________________________________________________________
[2m[36m(pid=12090)[0m aca6 (LeakyReLU)             (None, 3986, 256)         0         
[2m[36m(pid=12090)[0m _________________________________________________________________
[2m[36m(pid=12090)[0m pool_6 (MaxPooling1D)        (None, 1993, 256)         0         
[2m[36m(pid=12090)[0m _________________________________________________________________
[2m[36m(pid=12090)[0m cnn7_d256_k4 (Conv1D)        (None, 1990, 256)         262400    
[2m[36m(pid=12090)[0m _________________________________________________________________
[2m[36m(pid=12090)[0m aca7 (LeakyReLU)             (None, 1990, 256)         0         
[2m[36m(pid=12090)[0m _________________________________________________________________
[2m[36m(pid=12090)[0m cnn8_d256_k4 (Conv1D)        (None, 1987, 256)         262400    
[2m[36m(pid=12090)[0m _________________________________________________________________
[2m[36m(pid=12090)[0m aca8 (LeakyReLU)             (None, 1987, 256)         0         
[2m[36m(pid=12090)[0m _________________________________________________________________
[2m[36m(pid=12090)[0m cnn9_d256_k4 (Conv1D)        (None, 1984, 256)         262400    
[2m[36m(pid=12090)[0m _________________________________________________________________
[2m[36m(pid=12090)[0m aca9 (LeakyReLU)             (None, 1984, 256)         0         
[2m[36m(pid=12090)[0m _________________________________________________________________
[2m[36m(pid=12090)[0m pool_9 (MaxPooling1D)        (None, 992, 256)          0         
[2m[36m(pid=12090)[0m _________________________________________________________________
[2m[36m(pid=12090)[0m to_1d (Flatten)              (None, 253952)            0         
[2m[36m(pid=12090)[0m _________________________________________________________________
[2m[36m(pid=12090)[0m fdrop (Dropout)              (None, 253952)            0         
[2m[36m(pid=12090)[0m _________________________________________________________________
[2m[36m(pid=12090)[0m fc0 (Dense)                  (None, 512)               130023936 
[2m[36m(pid=12090)[0m _________________________________________________________________
[2m[36m(pid=12090)[0m acb0 (LeakyReLU)             (None, 512)               0         
[2m[36m(pid=12090)[0m _________________________________________________________________
[2m[36m(pid=12090)[0m drop0 (Dropout)              (None, 512)               0         
[2m[36m(pid=12090)[0m _________________________________________________________________
[2m[36m(pid=12090)[0m fc1 (Dense)                  (None, 496)               254448    
[2m[36m(pid=12090)[0m _________________________________________________________________
[2m[36m(pid=12090)[0m acb1 (LeakyReLU)             (None, 496)               0         
[2m[36m(pid=12090)[0m _________________________________________________________________
[2m[36m(pid=12090)[0m drop1 (Dropout)              (None, 496)               0         
[2m[36m(pid=12090)[0m _________________________________________________________________
[2m[36m(pid=12090)[0m out_tanh (Dense)             (None, 18)                8946      
[2m[36m(pid=12090)[0m _________________________________________________________________
[2m[36m(pid=12090)[0m scaleAmpl_1.2 (Lambda)       (None, 18)                0         
[2m[36m(pid=12090)[0m =================================================================
[2m[36m(pid=12090)[0m Total params: 131,867,790
[2m[36m(pid=12090)[0m Trainable params: 131,867,768
[2m[36m(pid=12090)[0m Non-trainable params: 22
[2m[36m(pid=12090)[0m _________________________________________________________________
[2m[36m(pid=12082)[0m build_model: loss= mse  opt= ['adam', 0.001, 1.1e-07]  out: (None, 18)
…
[2m[36m(pid=12082)[0m Summary   layers=63 , params=38844.4 K, inputs: (None, 8000, 11)
[2m[36m(pid=12082)[0m Model: "model"
[2m[36m(pid=12082)[0m _________________________________________________________________
[2m[36m(pid=12082)[0m Layer (type)                 Output Shape              Param #   
[2m[36m(pid=12082)[0m =================================================================
[2m[36m(pid=12082)[0m trace_8000 (InputLayer)      [(None, 8000, 11)]        0         
[2m[36m(pid=12082)[0m _________________________________________________________________
[2m[36m(pid=12082)[0m inp_BN_cast (BatchNormalizat (None, 8000, 11)          44        
[2m[36m(pid=12082)[0m _________________________________________________________________
[2m[36m(pid=12082)[0m cnn1_d32_k4 (Conv1D)         (None, 7997, 32)          1440      
[2m[36m(pid=12082)[0m _________________________________________________________________
[2m[36m(pid=12082)[0m aca1 (LeakyReLU)             (None, 7997, 32)          0         
[2m[36m(pid=12082)[0m _________________________________________________________________
[2m[36m(pid=12082)[0m cnn2_d32_k4 (Conv1D)         (None, 7994, 32)          4128      
[2m[36m(pid=12082)[0m _________________________________________________________________
[2m[36m(pid=12082)[0m aca2 (LeakyReLU)             (None, 7994, 32)          0         
[2m[36m(pid=12082)[0m _________________________________________________________________
[2m[36m(pid=12082)[0m cnn3_d32_k4 (Conv1D)         (None, 7991, 32)          4128      
[2m[36m(pid=12082)[0m _________________________________________________________________
[2m[36m(pid=12082)[0m aca3 (LeakyReLU)             (None, 7991, 32)          0         
[2m[36m(pid=12082)[0m _________________________________________________________________
[2m[36m(pid=12082)[0m cnn4_d32_k4 (Conv1D)         (None, 7988, 32)          4128      
[2m[36m(pid=12082)[0m _________________________________________________________________
[2m[36m(pid=12082)[0m aca4 (LeakyReLU)             (None, 7988, 32)          0         
[2m[36m(pid=12082)[0m _________________________________________________________________
[2m[36m(pid=12082)[0m cnn5_d32_k4 (Conv1D)         (None, 7985, 32)          4128      
[2m[36m(pid=12082)[0m _________________________________________________________________
[2m[36m(pid=12082)[0m aca5 (LeakyReLU)             (None, 7985, 32)          0         
[2m[36m(pid=12082)[0m _________________________________________________________________
[2m[36m(pid=12082)[0m cnn6_d32_k4 (Conv1D)         (None, 7982, 32)          4128      
[2m[36m(pid=12082)[0m _________________________________________________________________
[2m[36m(pid=12082)[0m aca6 (LeakyReLU)             (None, 7982, 32)          0         
[2m[36m(pid=12082)[0m _________________________________________________________________
[2m[36m(pid=12082)[0m cnn7_d32_k4 (Conv1D)         (None, 7979, 32)          4128      
[2m[36m(pid=12082)[0m _________________________________________________________________
[2m[36m(pid=12082)[0m aca7 (LeakyReLU)             (None, 7979, 32)          0         
[2m[36m(pid=12082)[0m _________________________________________________________________
[2m[36m(pid=12082)[0m pool_7 (MaxPooling1D)        (None, 2659, 32)          0         
[2m[36m(pid=12082)[0m _________________________________________________________________
[2m[36m(pid=12082)[0m cnn8_d128_k4 (Conv1D)        (None, 2656, 128)         16512     
[2m[36m(pid=12082)[0m _________________________________________________________________
[2m[36m(pid=12082)[0m aca8 (LeakyReLU)             (None, 2656, 128)         0         
[2m[36m(pid=12082)[0m _________________________________________________________________
[2m[36m(pid=12082)[0m cnn9_d128_k4 (Conv1D)        (None, 2653, 128)         65664     
[2m[36m(pid=12082)[0m _________________________________________________________________
[2m[36m(pid=12082)[0m aca9 (LeakyReLU)             (None, 2653, 128)         0         
[2m[36m(pid=12082)[0m _________________________________________________________________
[2m[36m(pid=12082)[0m cnn10_d128_k4 (Conv1D)       (None, 2650, 128)         65664     
[2m[36m(pid=12082)[0m _________________________________________________________________
[2m[36m(pid=12082)[0m aca10 (LeakyReLU)            (None, 2650, 128)         0         
[2m[36m(pid=12082)[0m _________________________________________________________________
[2m[36m(pid=12082)[0m cnn11_d128_k4 (Conv1D)       (None, 2647, 128)         65664     
[2m[36m(pid=12082)[0m _________________________________________________________________
[2m[36m(pid=12082)[0m aca11 (LeakyReLU)            (None, 2647, 128)         0         
[2m[36m(pid=12082)[0m _________________________________________________________________
[2m[36m(pid=12082)[0m cnn12_d128_k4 (Conv1D)       (None, 2644, 128)         65664     
[2m[36m(pid=12082)[0m _________________________________________________________________
[2m[36m(pid=12082)[0m aca12 (LeakyReLU)            (None, 2644, 128)         0         
[2m[36m(pid=12082)[0m _________________________________________________________________
[2m[36m(pid=12082)[0m cnn13_d128_k4 (Conv1D)       (None, 2641, 128)         65664     
[2m[36m(pid=12082)[0m _________________________________________________________________
[2m[36m(pid=12082)[0m aca13 (LeakyReLU)            (None, 2641, 128)         0         
[2m[36m(pid=12082)[0m _________________________________________________________________
[2m[36m(pid=12082)[0m cnn14_d128_k4 (Conv1D)       (None, 2638, 128)         65664     
[2m[36m(pid=12082)[0m _________________________________________________________________
[2m[36m(pid=12082)[0m aca14 (LeakyReLU)            (None, 2638, 128)         0         
[2m[36m(pid=12082)[0m _________________________________________________________________
[2m[36m(pid=12082)[0m pool_14 (MaxPooling1D)       (None, 879, 128)          0         
[2m[36m(pid=12082)[0m _________________________________________________________________
[2m[36m(pid=12082)[0m cnn15_d256_k4 (Conv1D)       (None, 876, 256)          131328    
[2m[36m(pid=12082)[0m _________________________________________________________________
[2m[36m(pid=12082)[0m aca15 (LeakyReLU)            (None, 876, 256)          0         
[2m[36m(pid=12082)[0m _________________________________________________________________
[2m[36m(pid=12082)[0m cnn16_d256_k4 (Conv1D)       (None, 873, 256)          262400    
[2m[36m(pid=12082)[0m _________________________________________________________________
[2m[36m(pid=12082)[0m aca16 (LeakyReLU)            (None, 873, 256)          0         
[2m[36m(pid=12082)[0m _________________________________________________________________
[2m[36m(pid=12082)[0m cnn17_d256_k4 (Conv1D)       (None, 870, 256)          262400    
[2m[36m(pid=12082)[0m _________________________________________________________________
[2m[36m(pid=12082)[0m aca17 (LeakyReLU)            (None, 870, 256)          0         
[2m[36m(pid=12082)[0m _________________________________________________________________
[2m[36m(pid=12082)[0m cnn18_d256_k4 (Conv1D)       (None, 867, 256)          262400    
[2m[36m(pid=12082)[0m _________________________________________________________________
[2m[36m(pid=12082)[0m aca18 (LeakyReLU)            (None, 867, 256)          0         
[2m[36m(pid=12082)[0m _________________________________________________________________
[2m[36m(pid=12082)[0m cnn19_d256_k4 (Conv1D)       (None, 864, 256)          262400    
[2m[36m(pid=12082)[0m _________________________________________________________________
[2m[36m(pid=12082)[0m aca19 (LeakyReLU)            (None, 864, 256)          0         
[2m[36m(pid=12082)[0m _________________________________________________________________
[2m[36m(pid=12082)[0m cnn20_d256_k4 (Conv1D)       (None, 861, 256)          262400    
[2m[36m(pid=12082)[0m _________________________________________________________________
[2m[36m(pid=12082)[0m aca20 (LeakyReLU)            (None, 861, 256)          0         
[2m[36m(pid=12082)[0m _________________________________________________________________
[2m[36m(pid=12082)[0m cnn21_d256_k4 (Conv1D)       (None, 858, 256)          262400    
[2m[36m(pid=12082)[0m _________________________________________________________________
[2m[36m(pid=12082)[0m aca21 (LeakyReLU)            (None, 858, 256)          0         
[2m[36m(pid=12082)[0m _________________________________________________________________
[2m[36m(pid=12082)[0m pool_21 (MaxPooling1D)       (None, 286, 256)          0         
[2m[36m(pid=12082)[0m _________________________________________________________________
[2m[36m(pid=12090)[0m   closed  yaml: out//model_1cellSpike.sum_train.yaml  size=1.3 kB   elaT=0.1 sec
[2m[36m(pid=12090)[0m training initiating
[2m[36m(pid=12090)[0m callbacks_list initiated
[2m[36m(pid=12090)[0m enable  end-epoch true train-loss as callBack
[2m[36m(pid=12090)[0m 
[2m[36m(pid=12090)[0m gen-cnst name=trainEOE found 1 of 1 input files, shuffle=1 fullTempl=/global/homes/b/balewski/prjn/neuronBBP-pack40kHzDisc/probe_quad/bbp153/bbp153.cellSpike_quad.data_*.h5
[2m[36m(pid=12090)[0m {'h5nameTemplate': 'bbp153.cellSpike_quad.data_*.h5', 'dataPath': '/global/homes/b/balewski/prjn/neuronBBP-pack40kHzDisc/probe_quad/bbp153/', 'shuffle': True, 'x_y_aux': False, 'useDataFrac': 0.05, 'batch_size': 32, 'numFeature': None, 'fakeSteps': 1, 'fileIdxL': [47], 'name': 'trainEOE'}
[2m[36m(pid=12090)[0m read data from hdf5: /global/homes/b/balewski/prjn/neuronBBP-pack40kHzDisc/probe_quad/bbp153/bbp153.cellSpike_quad.data_47.h5 , doAux False
[2m[36m(pid=12082)[0m to_1d (Flatten)              (None, 73216)             0         
[2m[36m(pid=12082)[0m _________________________________________________________________
[2m[36m(pid=12082)[0m fdrop (Dropout)              (None, 73216)             0         
[2m[36m(pid=12082)[0m _________________________________________________________________
[2m[36m(pid=12082)[0m fc0 (Dense)                  (None, 496)               36315632  
[2m[36m(pid=12082)[0m _________________________________________________________________
[2m[36m(pid=12082)[0m acb0 (LeakyReLU)             (None, 496)               0         
[2m[36m(pid=12082)[0m _________________________________________________________________
[2m[36m(pid=12082)[0m drop0 (Dropout)              (None, 496)               0         
[2m[36m(pid=12082)[0m _________________________________________________________________
[2m[36m(pid=12082)[0m fc1 (Dense)                  (None, 496)               246512    
[2m[36m(pid=12082)[0m _________________________________________________________________
[2m[36m(pid=12082)[0m acb1 (LeakyReLU)             (None, 496)               0         
[2m[36m(pid=12082)[0m _________________________________________________________________
[2m[36m(pid=12082)[0m drop1 (Dropout)              (None, 496)               0         
[2m[36m(pid=12082)[0m _________________________________________________________________
[2m[36m(pid=12082)[0m fc2 (Dense)                  (None, 248)               123256    
[2m[36m(pid=12082)[0m _________________________________________________________________
[2m[36m(pid=12082)[0m acb2 (LeakyReLU)             (None, 248)               0         
[2m[36m(pid=12082)[0m _________________________________________________________________
[2m[36m(pid=12082)[0m drop2 (Dropout)              (None, 248)               0         
[2m[36m(pid=12082)[0m _________________________________________________________________
[2m[36m(pid=12082)[0m fc3 (Dense)                  (None, 62)                15438     
[2m[36m(pid=12082)[0m _________________________________________________________________
[2m[36m(pid=12082)[0m acb3 (LeakyReLU)             (None, 62)                0         
[2m[36m(pid=12082)[0m _________________________________________________________________
[2m[36m(pid=12082)[0m drop3 (Dropout)              (None, 62)                0         
[2m[36m(pid=12082)[0m _________________________________________________________________
[2m[36m(pid=12082)[0m out_tanh (Dense)             (None, 18)                1134      
[2m[36m(pid=12082)[0m _________________________________________________________________
[2m[36m(pid=12082)[0m scaleAmpl_1.2 (Lambda)       (None, 18)                0         
[2m[36m(pid=12082)[0m =================================================================
[2m[36m(pid=12082)[0m Total params: 38,844,448
[2m[36m(pid=12082)[0m Trainable params: 38,844,426
[2m[36m(pid=12082)[0m Non-trainable params: 22
[2m[36m(pid=12082)[0m _________________________________________________________________
[2m[36m(pid=12082)[0m   closed  yaml: out//model_1cellSpike.sum_train.yaml  size=1.3 kB   elaT=0.1 sec
…
[2m[36m(pid=8900, ip=10.128.5.71)[0m Model: "model"
[2m[36m(pid=8900, ip=10.128.5.71)[0m _________________________________________________________________
[2m[36m(pid=8900, ip=10.128.5.71)[0m Layer (type)                 Output Shape              Param #   
[2m[36m(pid=8900, ip=10.128.5.71)[0m =================================================================
[2m[36m(pid=8900, ip=10.128.5.71)[0m trace_8000 (InputLayer)      [(None, 8000, 11)]        0         
[2m[36m(pid=8900, ip=10.128.5.71)[0m _________________________________________________________________
[2m[36m(pid=8900, ip=10.128.5.71)[0m inp_BN_cast (BatchNormalizat (None, 8000, 11)          44        
[2m[36m(pid=8900, ip=10.128.5.71)[0m _________________________________________________________________
[2m[36m(pid=8900, ip=10.128.5.71)[0m cnn1_d8_k3 (Conv1D)          (None, 7998, 8)           272       
[2m[36m(pid=8900, ip=10.128.5.71)[0m _________________________________________________________________
[2m[36m(pid=8900, ip=10.128.5.71)[0m aca1 (LeakyReLU)             (None, 7998, 8)           0         
[2m[36m(pid=8900, ip=10.128.5.71)[0m _________________________________________________________________
[2m[36m(pid=8900, ip=10.128.5.71)[0m cnn2_d8_k3 (Conv1D)          (None, 7996, 8)           200       
[2m[36m(pid=8900, ip=10.128.5.71)[0m _________________________________________________________________
[2m[36m(pid=8900, ip=10.128.5.71)[0m aca2 (LeakyReLU)             (None, 7996, 8)           0         
[2m[36m(pid=8900, ip=10.128.5.71)[0m _________________________________________________________________
[2m[36m(pid=8900, ip=10.128.5.71)[0m cnn3_d8_k3 (Conv1D)          (None, 7994, 8)           200       
[2m[36m(pid=8900, ip=10.128.5.71)[0m _________________________________________________________________
[2m[36m(pid=8900, ip=10.128.5.71)[0m aca3 (LeakyReLU)             (None, 7994, 8)           0         
[2m[36m(pid=8900, ip=10.128.5.71)[0m _________________________________________________________________
[2m[36m(pid=8900, ip=10.128.5.71)[0m cnn4_d8_k3 (Conv1D)          (None, 7992, 8)           200       
[2m[36m(pid=8900, ip=10.128.5.71)[0m _________________________________________________________________
[2m[36m(pid=8900, ip=10.128.5.71)[0m aca4 (LeakyReLU)             (None, 7992, 8)           0         
[2m[36m(pid=8900, ip=10.128.5.71)[0m _________________________________________________________________
[2m[36m(pid=8900, ip=10.128.5.71)[0m cnn5_d8_k3 (Conv1D)          (None, 7990, 8)           200       
[2m[36m(pid=8900, ip=10.128.5.71)[0m _________________________________________________________________
[2m[36m(pid=8900, ip=10.128.5.71)[0m aca5 (LeakyReLU)             (None, 7990, 8)           0         
[2m[36m(pid=8900, ip=10.128.5.71)[0m _________________________________________________________________
[2m[36m(pid=8900, ip=10.128.5.71)[0m cnn6_d8_k3 (Conv1D)          (None, 7988, 8)           200       
[2m[36m(pid=8900, ip=10.128.5.71)[0m _________________________________________________________________
[2m[36m(pid=8900, ip=10.128.5.71)[0m aca6 (LeakyReLU)             (None, 7988, 8)           0         
[2m[36m(pid=8900, ip=10.128.5.71)[0m _________________________________________________________________
[2m[36m(pid=8900, ip=10.128.5.71)[0m cnn7_d8_k3 (Conv1D)          (None, 7986, 8)           200       
[2m[36m(pid=8900, ip=10.128.5.71)[0m _________________________________________________________________
[2m[36m(pid=8900, ip=10.128.5.71)[0m aca7 (LeakyReLU)             (None, 7986, 8)           0         
[2m[36m(pid=8900, ip=10.128.5.71)[0m _________________________________________________________________
[2m[36m(pid=8900, ip=10.128.5.71)[0m cnn8_d8_k3 (Conv1D)          (None, 7984, 8)           200       
[2m[36m(pid=8900, ip=10.128.5.71)[0m _________________________________________________________________
[2m[36m(pid=8900, ip=10.128.5.71)[0m aca8 (LeakyReLU)             (None, 7984, 8)           0         
[2m[36m(pid=8900, ip=10.128.5.71)[0m _________________________________________________________________
[2m[36m(pid=8900, ip=10.128.5.71)[0m cnn9_d8_k3 (Conv1D)          (None, 7982, 8)           200       
[2m[36m(pid=8900, ip=10.128.5.71)[0m _________________________________________________________________
[2m[36m(pid=8900, ip=10.128.5.71)[0m aca9 (LeakyReLU)             (None, 7982, 8)           0         
[2m[36m(pid=8900, ip=10.128.5.71)[0m _________________________________________________________________
[2m[36m(pid=8900, ip=10.128.5.71)[0m pool_9 (MaxPooling1D)        (None, 3991, 8)           0         
[2m[36m(pid=8900, ip=10.128.5.71)[0m _________________________________________________________________
[2m[36m(pid=8900, ip=10.128.5.71)[0m cnn10_d8_k3 (Conv1D)         (None, 3989, 8)           200       
[2m[36m(pid=8900, ip=10.128.5.71)[0m _________________________________________________________________
[2m[36m(pid=8900, ip=10.128.5.71)[0m aca10 (LeakyReLU)            (None, 3989, 8)           0         
[2m[36m(pid=8900, ip=10.128.5.71)[0m _________________________________________________________________
[2m[36m(pid=8900, ip=10.128.5.71)[0m cnn11_d8_k3 (Conv1D)         (None, 3987, 8)           200       
[2m[36m(pid=8900, ip=10.128.5.71)[0m _________________________________________________________________
[2m[36m(pid=8900, ip=10.128.5.71)[0m aca11 (LeakyReLU)            (None, 3987, 8)           0         
[2m[36m(pid=8900, ip=10.128.5.71)[0m _________________________________________________________________
[2m[36m(pid=8900, ip=10.128.5.71)[0m cnn12_d8_k3 (Conv1D)         (None, 3985, 8)           200       
[2m[36m(pid=8900, ip=10.128.5.71)[0m _________________________________________________________________
[2m[36m(pid=8900, ip=10.128.5.71)[0m aca12 (LeakyReLU)            (None, 3985, 8)           0         
[2m[36m(pid=8900, ip=10.128.5.71)[0m _________________________________________________________________
[2m[36m(pid=8900, ip=10.128.5.71)[0m cnn13_d8_k3 (Conv1D)         (None, 3983, 8)           200       
[2m[36m(pid=8900, ip=10.128.5.71)[0m _________________________________________________________________
[2m[36m(pid=8900, ip=10.128.5.71)[0m aca13 (LeakyReLU)            (None, 3983, 8)           0         
[2m[36m(pid=8900, ip=10.128.5.71)[0m _________________________________________________________________
[2m[36m(pid=8900, ip=10.128.5.71)[0m cnn14_d8_k3 (Conv1D)         (None, 3981, 8)           200       
[2m[36m(pid=8900, ip=10.128.5.71)[0m _________________________________________________________________
[2m[36m(pid=8900, ip=10.128.5.71)[0m aca14 (LeakyReLU)            (None, 3981, 8)           0         
[2m[36m(pid=8900, ip=10.128.5.71)[0m _________________________________________________________________
[2m[36m(pid=8900, ip=10.128.5.71)[0m cnn15_d8_k3 (Conv1D)         (None, 3979, 8)           200       
[2m[36m(pid=8900, ip=10.128.5.71)[0m _________________________________________________________________
[2m[36m(pid=8900, ip=10.128.5.71)[0m aca15 (LeakyReLU)            (None, 3979, 8)           0         
[2m[36m(pid=8900, ip=10.128.5.71)[0m _________________________________________________________________
[2m[36m(pid=8900, ip=10.128.5.71)[0m cnn16_d8_k3 (Conv1D)         (None, 3977, 8)           200       
[2m[36m(pid=8900, ip=10.128.5.71)[0m _________________________________________________________________
[2m[36m(pid=8900, ip=10.128.5.71)[0m aca16 (LeakyReLU)            (None, 3977, 8)           0         
[2m[36m(pid=8900, ip=10.128.5.71)[0m _________________________________________________________________
[2m[36m(pid=8900, ip=10.128.5.71)[0m cnn17_d8_k3 (Conv1D)         (None, 3975, 8)           200       
[2m[36m(pid=8900, ip=10.128.5.71)[0m _________________________________________________________________
[2m[36m(pid=8900, ip=10.128.5.71)[0m aca17 (LeakyReLU)            (None, 3975, 8)           0         
[2m[36m(pid=8900, ip=10.128.5.71)[0m _________________________________________________________________
[2m[36m(pid=8900, ip=10.128.5.71)[0m cnn18_d8_k3 (Conv1D)         (None, 3973, 8)           200       
[2m[36m(pid=8900, ip=10.128.5.71)[0m _________________________________________________________________
[2m[36m(pid=8900, ip=10.128.5.71)[0m aca18 (LeakyReLU)            (None, 3973, 8)           0         
[2m[36m(pid=8900, ip=10.128.5.71)[0m _________________________________________________________________
[2m[36m(pid=8900, ip=10.128.5.71)[0m pool_18 (MaxPooling1D)       (None, 1986, 8)           0         
[2m[36m(pid=8900, ip=10.128.5.71)[0m _________________________________________________________________
[2m[36m(pid=8900, ip=10.128.5.71)[0m cnn19_d16_k3 (Conv1D)        (None, 1984, 16)          400       
[2m[36m(pid=8900, ip=10.128.5.71)[0m _________________________________________________________________
[2m[36m(pid=8900, ip=10.128.5.71)[0m aca19 (LeakyReLU)            (None, 1984, 16)          0         
[2m[36m(pid=8900, ip=10.128.5.71)[0m _________________________________________________________________
[2m[36m(pid=8900, ip=10.128.5.71)[0m cnn20_d16_k3 (Conv1D)        (None, 1982, 16)          784       
[2m[36m(pid=8900, ip=10.128.5.71)[0m _________________________________________________________________
[2m[36m(pid=8900, ip=10.128.5.71)[0m aca20 (LeakyReLU)            (None, 1982, 16)          0         
[2m[36m(pid=8900, ip=10.128.5.71)[0m _________________________________________________________________
[2m[36m(pid=8900, ip=10.128.5.71)[0m cnn21_d16_k3 (Conv1D)        (None, 1980, 16)          784       
[2m[36m(pid=8900, ip=10.128.5.71)[0m _________________________________________________________________
[2m[36m(pid=8900, ip=10.128.5.71)[0m aca21 (LeakyReLU)            (None, 1980, 16)          0         
[2m[36m(pid=8900, ip=10.128.5.71)[0m _________________________________________________________________
[2m[36m(pid=8900, ip=10.128.5.71)[0m cnn22_d16_k3 (Conv1D)        (None, 1978, 16)          784       
[2m[36m(pid=8900, ip=10.128.5.71)[0m _________________________________________________________________
[2m[36m(pid=8900, ip=10.128.5.71)[0m aca22 (LeakyReLU)            (None, 1978, 16)          0         
[2m[36m(pid=8900, ip=10.128.5.71)[0m _________________________________________________________________
[2m[36m(pid=8900, ip=10.128.5.71)[0m cnn23_d16_k3 (Conv1D)        (None, 1976, 16)          784       
[2m[36m(pid=8900, ip=10.128.5.71)[0m _________________________________________________________________
[2m[36m(pid=8900, ip=10.128.5.71)[0m aca23 (LeakyReLU)            (None, 1976, 16)          0         
[2m[36m(pid=8900, ip=10.128.5.71)[0m _________________________________________________________________
[2m[36m(pid=8900, ip=10.128.5.71)[0m cnn24_d16_k3 (Conv1D)        (None, 1974, 16)          784       
[2m[36m(pid=8900, ip=10.128.5.71)[0m _________________________________________________________________
[2m[36m(pid=8900, ip=10.128.5.71)[0m aca24 (LeakyReLU)            (None, 1974, 16)          0         
[2m[36m(pid=8900, ip=10.128.5.71)[0m _________________________________________________________________
[2m[36m(pid=8900, ip=10.128.5.71)[0m cnn25_d16_k3 (Conv1D)        (None, 1972, 16)          784       
[2m[36m(pid=8900, ip=10.128.5.71)[0m _________________________________________________________________
[2m[36m(pid=8900, ip=10.128.5.71)[0m aca25 (LeakyReLU)            (None, 1972, 16)          0         
[2m[36m(pid=8900, ip=10.128.5.71)[0m _________________________________________________________________
[2m[36m(pid=8900, ip=10.128.5.71)[0m cnn26_d16_k3 (Conv1D)        (None, 1970, 16)          784       
[2m[36m(pid=8900, ip=10.128.5.71)[0m _________________________________________________________________
[2m[36m(pid=8900, ip=10.128.5.71)[0m aca26 (LeakyReLU)            (None, 1970, 16)          0         
[2m[36m(pid=8900, ip=10.128.5.71)[0m _________________________________________________________________
[2m[36m(pid=8900, ip=10.128.5.71)[0m cnn27_d16_k3 (Conv1D)        (None, 1968, 16)          784       
[2m[36m(pid=8900, ip=10.128.5.71)[0m _________________________________________________________________
[2m[36m(pid=8900, ip=10.128.5.71)[0m aca27 (LeakyReLU)            (None, 1968, 16)          0         
[2m[36m(pid=8900, ip=10.128.5.71)[0m _________________________________________________________________
[2m[36m(pid=8900, ip=10.128.5.71)[0m pool_27 (MaxPooling1D)       (None, 984, 16)           0         
[2m[36m(pid=8900, ip=10.128.5.71)[0m _________________________________________________________________
[2m[36m(pid=8900, ip=10.128.5.71)[0m to_1d (Flatten)              (None, 15744)             0         
[2m[36m(pid=8900, ip=10.128.5.71)[0m _________________________________________________________________
[2m[36m(pid=8900, ip=10.128.5.71)[0m fdrop (Dropout)              (None, 15744)             0         
[2m[36m(pid=8900, ip=10.128.5.71)[0m _________________________________________________________________
[2m[36m(pid=8900, ip=10.128.5.71)[0m fc0 (Dense)                  (None, 512)               8061440   
[2m[36m(pid=8900, ip=10.128.5.71)[0m _________________________________________________________________
[2m[36m(pid=8900, ip=10.128.5.71)[0m acb0 (LeakyReLU)             (None, 512)               0         
[2m[36m(pid=8900, ip=10.128.5.71)[0m _________________________________________________________________
[2m[36m(pid=8900, ip=10.128.5.71)[0m drop0 (Dropout)              (None, 512)               0         
[2m[36m(pid=8900, ip=10.128.5.71)[0m _________________________________________________________________
[2m[36m(pid=8900, ip=10.128.5.71)[0m fc1 (Dense)                  (None, 512)               262656    
[2m[36m(pid=8900, ip=10.128.5.71)[0m _________________________________________________________________
[2m[36m(pid=8900, ip=10.128.5.71)[0m acb1 (LeakyReLU)             (None, 512)               0         
[2m[36m(pid=8900, ip=10.128.5.71)[0m _________________________________________________________________
[2m[36m(pid=8900, ip=10.128.5.71)[0m drop1 (Dropout)              (None, 512)               0         
[2m[36m(pid=8900, ip=10.128.5.71)[0m _________________________________________________________________
[2m[36m(pid=8900, ip=10.128.5.71)[0m fc2 (Dense)                  (None, 496)               254448    
[2m[36m(pid=8900, ip=10.128.5.71)[0m _________________________________________________________________
[2m[36m(pid=8900, ip=10.128.5.71)[0m acb2 (LeakyReLU)             (None, 496)               0         
[2m[36m(pid=8900, ip=10.128.5.71)[0m _________________________________________________________________
[2m[36m(pid=8900, ip=10.128.5.71)[0m drop2 (Dropout)              (None, 496)               0         
[2m[36m(pid=8900, ip=10.128.5.71)[0m _________________________________________________________________
[2m[36m(pid=8900, ip=10.128.5.71)[0m fc3 (Dense)                  (None, 496)               246512    
[2m[36m(pid=8900, ip=10.128.5.71)[0m _________________________________________________________________
[2m[36m(pid=8900, ip=10.128.5.71)[0m acb3 (LeakyReLU)             (None, 496)               0         
[2m[36m(pid=8900, ip=10.128.5.71)[0m _________________________________________________________________
[2m[36m(pid=8900, ip=10.128.5.71)[0m drop3 (Dropout)              (None, 496)               0         
[2m[36m(pid=8900, ip=10.128.5.71)[0m _________________________________________________________________
[2m[36m(pid=8900, ip=10.128.5.71)[0m fc4 (Dense)                  (None, 248)               123256    
[2m[36m(pid=8900, ip=10.128.5.71)[0m _________________________________________________________________
[2m[36m(pid=8900, ip=10.128.5.71)[0m acb4 (LeakyReLU)             (None, 248)               0         
[2m[36m(pid=8900, ip=10.128.5.71)[0m _________________________________________________________________
[2m[36m(pid=8900, ip=10.128.5.71)[0m drop4 (Dropout)              (None, 248)               0         
[2m[36m(pid=8900, ip=10.128.5.71)[0m _________________________________________________________________
[2m[36m(pid=8900, ip=10.128.5.71)[0m out_tanh (Dense)             (None, 18)                4482      
[2m[36m(pid=8900, ip=10.128.5.71)[0m _________________________________________________________________
[2m[36m(pid=8900, ip=10.128.5.71)[0m scaleAmpl_1.2 (Lambda)       (None, 18)                0         
[2m[36m(pid=8900, ip=10.128.5.71)[0m =================================================================
[2m[36m(pid=8900, ip=10.128.5.71)[0m Total params: 8,963,182
[2m[36m(pid=8900, ip=10.128.5.71)[0m Trainable params: 8,963,160
[2m[36m(pid=8900, ip=10.128.5.71)[0m Non-trainable params: 22
[2m[36m(pid=8900, ip=10.128.5.71)[0m _________________________________________________________________
…
[2m[36m(pid=8906, ip=10.128.5.71)[0m Model: "model"
[2m[36m(pid=8906, ip=10.128.5.71)[0m _________________________________________________________________
[2m[36m(pid=8906, ip=10.128.5.71)[0m Layer (type)                 Output Shape              Param #   
[2m[36m(pid=8906, ip=10.128.5.71)[0m =================================================================
[2m[36m(pid=8906, ip=10.128.5.71)[0m trace_8000 (InputLayer)      [(None, 8000, 11)]        0         
[2m[36m(pid=8906, ip=10.128.5.71)[0m _________________________________________________________________
[2m[36m(pid=8906, ip=10.128.5.71)[0m inp_BN_cast (BatchNormalizat (None, 8000, 11)          44        
[2m[36m(pid=8906, ip=10.128.5.71)[0m _________________________________________________________________
[2m[36m(pid=8906, ip=10.128.5.71)[0m cnn1_d16_k4 (Conv1D)         (None, 7997, 16)          720       
[2m[36m(pid=8906, ip=10.128.5.71)[0m _________________________________________________________________
[2m[36m(pid=8906, ip=10.128.5.71)[0m aca1 (LeakyReLU)             (None, 7997, 16)          0         
[2m[36m(pid=8906, ip=10.128.5.71)[0m _________________________________________________________________
[2m[36m(pid=8906, ip=10.128.5.71)[0m cnn2_d16_k4 (Conv1D)         (None, 7994, 16)          1040      
[2m[36m(pid=8906, ip=10.128.5.71)[0m _________________________________________________________________
[2m[36m(pid=8906, ip=10.128.5.71)[0m aca2 (LeakyReLU)             (None, 7994, 16)          0         
[2m[36m(pid=8906, ip=10.128.5.71)[0m _________________________________________________________________
[2m[36m(pid=8906, ip=10.128.5.71)[0m cnn3_d16_k4 (Conv1D)         (None, 7991, 16)          1040      
[2m[36m(pid=8906, ip=10.128.5.71)[0m _________________________________________________________________
[2m[36m(pid=8906, ip=10.128.5.71)[0m aca3 (LeakyReLU)             (None, 7991, 16)          0         
[2m[36m(pid=8906, ip=10.128.5.71)[0m _________________________________________________________________
[2m[36m(pid=8906, ip=10.128.5.71)[0m cnn4_d16_k4 (Conv1D)         (None, 7988, 16)          1040      
[2m[36m(pid=8906, ip=10.128.5.71)[0m _________________________________________________________________
[2m[36m(pid=8906, ip=10.128.5.71)[0m aca4 (LeakyReLU)             (None, 7988, 16)          0         
[2m[36m(pid=8906, ip=10.128.5.71)[0m _________________________________________________________________
[2m[36m(pid=8906, ip=10.128.5.71)[0m cnn5_d16_k4 (Conv1D)         (None, 7985, 16)          1040      
[2m[36m(pid=8906, ip=10.128.5.71)[0m _________________________________________________________________
[2m[36m(pid=8906, ip=10.128.5.71)[0m aca5 (LeakyReLU)             (None, 7985, 16)          0         
[2m[36m(pid=8906, ip=10.128.5.71)[0m _________________________________________________________________
[2m[36m(pid=8906, ip=10.128.5.71)[0m cnn6_d16_k4 (Conv1D)         (None, 7982, 16)          1040      
[2m[36m(pid=8906, ip=10.128.5.71)[0m _________________________________________________________________
[2m[36m(pid=8906, ip=10.128.5.71)[0m aca6 (LeakyReLU)             (None, 7982, 16)          0         
[2m[36m(pid=8906, ip=10.128.5.71)[0m _________________________________________________________________
[2m[36m(pid=8906, ip=10.128.5.71)[0m cnn7_d16_k4 (Conv1D)         (None, 7979, 16)          1040      
[2m[36m(pid=8906, ip=10.128.5.71)[0m _________________________________________________________________
[2m[36m(pid=8906, ip=10.128.5.71)[0m aca7 (LeakyReLU)             (None, 7979, 16)          0         
[2m[36m(pid=8906, ip=10.128.5.71)[0m _________________________________________________________________
[2m[36m(pid=8906, ip=10.128.5.71)[0m pool_7 (MaxPooling1D)        (None, 3989, 16)          0         
[2m[36m(pid=8906, ip=10.128.5.71)[0m _________________________________________________________________
[2m[36m(pid=8906, ip=10.128.5.71)[0m cnn8_d16_k4 (Conv1D)         (None, 3986, 16)          1040      
[2m[36m(pid=8906, ip=10.128.5.71)[0m _________________________________________________________________
[2m[36m(pid=8906, ip=10.128.5.71)[0m aca8 (LeakyReLU)             (None, 3986, 16)          0         
[2m[36m(pid=8906, ip=10.128.5.71)[0m _________________________________________________________________
[2m[36m(pid=8906, ip=10.128.5.71)[0m cnn9_d16_k4 (Conv1D)         (None, 3983, 16)          1040      
[2m[36m(pid=8906, ip=10.128.5.71)[0m _________________________________________________________________
[2m[36m(pid=8906, ip=10.128.5.71)[0m aca9 (LeakyReLU)             (None, 3983, 16)          0         
[2m[36m(pid=8906, ip=10.128.5.71)[0m _________________________________________________________________
[2m[36m(pid=8906, ip=10.128.5.71)[0m cnn10_d16_k4 (Conv1D)        (None, 3980, 16)          1040      
[2m[36m(pid=8906, ip=10.128.5.71)[0m _________________________________________________________________
[2m[36m(pid=8906, ip=10.128.5.71)[0m aca10 (LeakyReLU)            (None, 3980, 16)          0         
[2m[36m(pid=8906, ip=10.128.5.71)[0m _________________________________________________________________
[2m[36m(pid=8906, ip=10.128.5.71)[0m cnn11_d16_k4 (Conv1D)        (None, 3977, 16)          1040      
[2m[36m(pid=8906, ip=10.128.5.71)[0m _________________________________________________________________
[2m[36m(pid=8906, ip=10.128.5.71)[0m aca11 (LeakyReLU)            (None, 3977, 16)          0         
[2m[36m(pid=8906, ip=10.128.5.71)[0m _________________________________________________________________
[2m[36m(pid=8906, ip=10.128.5.71)[0m cnn12_d16_k4 (Conv1D)        (None, 3974, 16)          1040      
[2m[36m(pid=8906, ip=10.128.5.71)[0m _________________________________________________________________
[2m[36m(pid=8906, ip=10.128.5.71)[0m aca12 (LeakyReLU)            (None, 3974, 16)          0         
[2m[36m(pid=8906, ip=10.128.5.71)[0m _________________________________________________________________
[2m[36m(pid=8906, ip=10.128.5.71)[0m cnn13_d16_k4 (Conv1D)        (None, 3971, 16)          1040      
[2m[36m(pid=8906, ip=10.128.5.71)[0m _________________________________________________________________
[2m[36m(pid=8906, ip=10.128.5.71)[0m aca13 (LeakyReLU)            (None, 3971, 16)          0         
[2m[36m(pid=8906, ip=10.128.5.71)[0m _________________________________________________________________
[2m[36m(pid=8906, ip=10.128.5.71)[0m cnn14_d16_k4 (Conv1D)        (None, 3968, 16)          1040      
[2m[36m(pid=8906, ip=10.128.5.71)[0m _________________________________________________________________
[2m[36m(pid=8906, ip=10.128.5.71)[0m aca14 (LeakyReLU)            (None, 3968, 16)          0         
[2m[36m(pid=8906, ip=10.128.5.71)[0m _________________________________________________________________
[2m[36m(pid=8906, ip=10.128.5.71)[0m pool_14 (MaxPooling1D)       (None, 1984, 16)          0         
[2m[36m(pid=8906, ip=10.128.5.71)[0m _________________________________________________________________
[2m[36m(pid=8906, ip=10.128.5.71)[0m cnn15_d64_k4 (Conv1D)        (None, 1981, 64)          4160      
[2m[36m(pid=8906, ip=10.128.5.71)[0m _________________________________________________________________
[2m[36m(pid=8906, ip=10.128.5.71)[0m aca15 (LeakyReLU)            (None, 1981, 64)          0         
[2m[36m(pid=8906, ip=10.128.5.71)[0m _________________________________________________________________
[2m[36m(pid=8906, ip=10.128.5.71)[0m cnn16_d64_k4 (Conv1D)        (None, 1978, 64)          16448     
[2m[36m(pid=8906, ip=10.128.5.71)[0m _________________________________________________________________
[2m[36m(pid=8906, ip=10.128.5.71)[0m aca16 (LeakyReLU)            (None, 1978, 64)          0         
[2m[36m(pid=8906, ip=10.128.5.71)[0m _________________________________________________________________
[2m[36m(pid=8906, ip=10.128.5.71)[0m cnn17_d64_k4 (Conv1D)        (None, 1975, 64)          16448     
[2m[36m(pid=8906, ip=10.128.5.71)[0m _________________________________________________________________
[2m[36m(pid=8906, ip=10.128.5.71)[0m aca17 (LeakyReLU)            (None, 1975, 64)          0         
[2m[36m(pid=8906, ip=10.128.5.71)[0m _________________________________________________________________
[2m[36m(pid=8906, ip=10.128.5.71)[0m cnn18_d64_k4 (Conv1D)        (None, 1972, 64)          16448     
[2m[36m(pid=8906, ip=10.128.5.71)[0m _________________________________________________________________
[2m[36m(pid=8906, ip=10.128.5.71)[0m aca18 (LeakyReLU)            (None, 1972, 64)          0         
[2m[36m(pid=8906, ip=10.128.5.71)[0m _________________________________________________________________
[2m[36m(pid=8906, ip=10.128.5.71)[0m cnn19_d64_k4 (Conv1D)        (None, 1969, 64)          16448     
[2m[36m(pid=8906, ip=10.128.5.71)[0m _________________________________________________________________
[2m[36m(pid=8906, ip=10.128.5.71)[0m aca19 (LeakyReLU)            (None, 1969, 64)          0         
[2m[36m(pid=8906, ip=10.128.5.71)[0m _________________________________________________________________
[2m[36m(pid=8906, ip=10.128.5.71)[0m cnn20_d64_k4 (Conv1D)        (None, 1966, 64)          16448     
[2m[36m(pid=8906, ip=10.128.5.71)[0m _________________________________________________________________
[2m[36m(pid=8906, ip=10.128.5.71)[0m aca20 (LeakyReLU)            (None, 1966, 64)          0         
[2m[36m(pid=8906, ip=10.128.5.71)[0m _________________________________________________________________
[2m[36m(pid=8906, ip=10.128.5.71)[0m cnn21_d64_k4 (Conv1D)        (None, 1963, 64)          16448     
[2m[36m(pid=8906, ip=10.128.5.71)[0m _________________________________________________________________
[2m[36m(pid=8906, ip=10.128.5.71)[0m aca21 (LeakyReLU)            (None, 1963, 64)          0         
[2m[36m(pid=8906, ip=10.128.5.71)[0m _________________________________________________________________
[2m[36m(pid=8906, ip=10.128.5.71)[0m pool_21 (MaxPooling1D)       (None, 981, 64)           0         
[2m[36m(pid=8906, ip=10.128.5.71)[0m _________________________________________________________________
[2m[36m(pid=8906, ip=10.128.5.71)[0m cnn22_d128_k4 (Conv1D)       (None, 978, 128)          32896     
[2m[36m(pid=8906, ip=10.128.5.71)[0m _________________________________________________________________
[2m[36m(pid=8906, ip=10.128.5.71)[0m aca22 (LeakyReLU)            (None, 978, 128)          0         
[2m[36m(pid=8906, ip=10.128.5.71)[0m _________________________________________________________________
[2m[36m(pid=8906, ip=10.128.5.71)[0m cnn23_d128_k4 (Conv1D)       (None, 975, 128)          65664     
[2m[36m(pid=8906, ip=10.128.5.71)[0m _________________________________________________________________
[2m[36m(pid=8906, ip=10.128.5.71)[0m aca23 (LeakyReLU)            (None, 975, 128)          0         
[2m[36m(pid=8906, ip=10.128.5.71)[0m _________________________________________________________________
[2m[36m(pid=8906, ip=10.128.5.71)[0m cnn24_d128_k4 (Conv1D)       (None, 972, 128)          65664     
[2m[36m(pid=8906, ip=10.128.5.71)[0m _________________________________________________________________
[2m[36m(pid=8906, ip=10.128.5.71)[0m aca24 (LeakyReLU)            (None, 972, 128)          0         
[2m[36m(pid=8906, ip=10.128.5.71)[0m _________________________________________________________________
[2m[36m(pid=8906, ip=10.128.5.71)[0m cnn25_d128_k4 (Conv1D)       (None, 969, 128)          65664     
[2m[36m(pid=8906, ip=10.128.5.71)[0m _________________________________________________________________
[2m[36m(pid=8906, ip=10.128.5.71)[0m aca25 (LeakyReLU)            (None, 969, 128)          0         
[2m[36m(pid=8906, ip=10.128.5.71)[0m _________________________________________________________________
[2m[36m(pid=8906, ip=10.128.5.71)[0m cnn26_d128_k4 (Conv1D)       (None, 966, 128)          65664     
[2m[36m(pid=8906, ip=10.128.5.71)[0m _________________________________________________________________
[2m[36m(pid=8906, ip=10.128.5.71)[0m aca26 (LeakyReLU)            (None, 966, 128)          0         
[2m[36m(pid=8906, ip=10.128.5.71)[0m _________________________________________________________________
[2m[36m(pid=8906, ip=10.128.5.71)[0m cnn27_d128_k4 (Conv1D)       (None, 963, 128)          65664     
[2m[36m(pid=8906, ip=10.128.5.71)[0m _________________________________________________________________
[2m[36m(pid=8906, ip=10.128.5.71)[0m aca27 (LeakyReLU)            (None, 963, 128)          0         
[2m[36m(pid=8906, ip=10.128.5.71)[0m _________________________________________________________________
[2m[36m(pid=8906, ip=10.128.5.71)[0m cnn28_d128_k4 (Conv1D)       (None, 960, 128)          65664     
[2m[36m(pid=8906, ip=10.128.5.71)[0m _________________________________________________________________
[2m[36m(pid=8906, ip=10.128.5.71)[0m aca28 (LeakyReLU)            (None, 960, 128)          0         
[2m[36m(pid=8906, ip=10.128.5.71)[0m _________________________________________________________________
[2m[36m(pid=8906, ip=10.128.5.71)[0m pool_28 (MaxPooling1D)       (None, 480, 128)          0         
[2m[36m(pid=8906, ip=10.128.5.71)[0m _________________________________________________________________
[2m[36m(pid=8906, ip=10.128.5.71)[0m cnn29_d256_k4 (Conv1D)       (None, 477, 256)          131328    
[2m[36m(pid=8906, ip=10.128.5.71)[0m _________________________________________________________________
[2m[36m(pid=8906, ip=10.128.5.71)[0m aca29 (LeakyReLU)            (None, 477, 256)          0         
[2m[36m(pid=8906, ip=10.128.5.71)[0m _________________________________________________________________
[2m[36m(pid=8906, ip=10.128.5.71)[0m cnn30_d256_k4 (Conv1D)       (None, 474, 256)          262400    
[2m[36m(pid=8906, ip=10.128.5.71)[0m _________________________________________________________________
[2m[36m(pid=8906, ip=10.128.5.71)[0m aca30 (LeakyReLU)            (None, 474, 256)          0         
[2m[36m(pid=8906, ip=10.128.5.71)[0m _________________________________________________________________
[2m[36m(pid=8906, ip=10.128.5.71)[0m cnn31_d256_k4 (Conv1D)       (None, 471, 256)          262400    
[2m[36m(pid=8906, ip=10.128.5.71)[0m _________________________________________________________________
[2m[36m(pid=8906, ip=10.128.5.71)[0m aca31 (LeakyReLU)            (None, 471, 256)          0         
[2m[36m(pid=8906, ip=10.128.5.71)[0m _________________________________________________________________
[2m[36m(pid=8906, ip=10.128.5.71)[0m cnn32_d256_k4 (Conv1D)       (None, 468, 256)          262400    
[2m[36m(pid=8906, ip=10.128.5.71)[0m _________________________________________________________________
[2m[36m(pid=8906, ip=10.128.5.71)[0m aca32 (LeakyReLU)            (None, 468, 256)          0         
[2m[36m(pid=8906, ip=10.128.5.71)[0m _________________________________________________________________
[2m[36m(pid=8906, ip=10.128.5.71)[0m cnn33_d256_k4 (Conv1D)       (None, 465, 256)          262400    
[2m[36m(pid=8906, ip=10.128.5.71)[0m _________________________________________________________________
[2m[36m(pid=8906, ip=10.128.5.71)[0m aca33 (LeakyReLU)            (None, 465, 256)          0         
[2m[36m(pid=8906, ip=10.128.5.71)[0m _________________________________________________________________
[2m[36m(pid=8906, ip=10.128.5.71)[0m cnn34_d256_k4 (Conv1D)       (None, 462, 256)          262400    
[2m[36m(pid=8906, ip=10.128.5.71)[0m _________________________________________________________________
[2m[36m(pid=8906, ip=10.128.5.71)[0m aca34 (LeakyReLU)            (None, 462, 256)          0         
[2m[36m(pid=8906, ip=10.128.5.71)[0m _________________________________________________________________
[2m[36m(pid=8906, ip=10.128.5.71)[0m cnn35_d256_k4 (Conv1D)       (None, 459, 256)          262400    
[2m[36m(pid=8906, ip=10.128.5.71)[0m _________________________________________________________________
[2m[36m(pid=8906, ip=10.128.5.71)[0m aca35 (LeakyReLU)            (None, 459, 256)          0         
[2m[36m(pid=8906, ip=10.128.5.71)[0m _________________________________________________________________
[2m[36m(pid=8906, ip=10.128.5.71)[0m pool_35 (MaxPooling1D)       (None, 229, 256)          0         
[2m[36m(pid=8906, ip=10.128.5.71)[0m _________________________________________________________________
[2m[36m(pid=8906, ip=10.128.5.71)[0m cnn36_d256_k4 (Conv1D)       (None, 226, 256)          262400    
[2m[36m(pid=8906, ip=10.128.5.71)[0m _________________________________________________________________
[2m[36m(pid=8906, ip=10.128.5.71)[0m aca36 (LeakyReLU)            (None, 226, 256)          0         
[2m[36m(pid=8906, ip=10.128.5.71)[0m _________________________________________________________________
[2m[36m(pid=8906, ip=10.128.5.71)[0m cnn37_d256_k4 (Conv1D)       (None, 223, 256)          262400    
[2m[36m(pid=8906, ip=10.128.5.71)[0m _________________________________________________________________
[2m[36m(pid=8906, ip=10.128.5.71)[0m aca37 (LeakyReLU)            (None, 223, 256)          0         
[2m[36m(pid=8906, ip=10.128.5.71)[0m _________________________________________________________________
[2m[36m(pid=8906, ip=10.128.5.71)[0m cnn38_d256_k4 (Conv1D)       (None, 220, 256)          262400    
[2m[36m(pid=8906, ip=10.128.5.71)[0m _________________________________________________________________
[2m[36m(pid=8906, ip=10.128.5.71)[0m aca38 (LeakyReLU)            (None, 220, 256)          0         
[2m[36m(pid=8906, ip=10.128.5.71)[0m _________________________________________________________________
[2m[36m(pid=8906, ip=10.128.5.71)[0m cnn39_d256_k4 (Conv1D)       (None, 217, 256)          262400    
[2m[36m(pid=8906, ip=10.128.5.71)[0m _________________________________________________________________
[2m[36m(pid=8906, ip=10.128.5.71)[0m aca39 (LeakyReLU)            (None, 217, 256)          0         
[2m[36m(pid=8906, ip=10.128.5.71)[0m _________________________________________________________________
[2m[36m(pid=8906, ip=10.128.5.71)[0m cnn40_d256_k4 (Conv1D)       (None, 214, 256)          262400    
[2m[36m(pid=8906, ip=10.128.5.71)[0m _________________________________________________________________
[2m[36m(pid=8906, ip=10.128.5.71)[0m aca40 (LeakyReLU)            (None, 214, 256)          0         
[2m[36m(pid=8906, ip=10.128.5.71)[0m _________________________________________________________________
[2m[36m(pid=8906, ip=10.128.5.71)[0m cnn41_d256_k4 (Conv1D)       (None, 211, 256)          262400    
[2m[36m(pid=8906, ip=10.128.5.71)[0m _________________________________________________________________
[2m[36m(pid=8906, ip=10.128.5.71)[0m aca41 (LeakyReLU)            (None, 211, 256)          0         
[2m[36m(pid=8906, ip=10.128.5.71)[0m _________________________________________________________________
[2m[36m(pid=8906, ip=10.128.5.71)[0m cnn42_d256_k4 (Conv1D)       (None, 208, 256)          262400    
[2m[36m(pid=8906, ip=10.128.5.71)[0m _________________________________________________________________
[2m[36m(pid=8906, ip=10.128.5.71)[0m aca42 (LeakyReLU)            (None, 208, 256)          0         
[2m[36m(pid=8906, ip=10.128.5.71)[0m _________________________________________________________________
[2m[36m(pid=8906, ip=10.128.5.71)[0m pool_42 (MaxPooling1D)       (None, 104, 256)          0         
[2m[36m(pid=8906, ip=10.128.5.71)[0m _________________________________________________________________
[2m[36m(pid=8906, ip=10.128.5.71)[0m cnn43_d256_k4 (Conv1D)       (None, 101, 256)          262400    
[2m[36m(pid=8906, ip=10.128.5.71)[0m _________________________________________________________________
[2m[36m(pid=8906, ip=10.128.5.71)[0m aca43 (LeakyReLU)            (None, 101, 256)          0         
[2m[36m(pid=8906, ip=10.128.5.71)[0m _________________________________________________________________
[2m[36m(pid=8906, ip=10.128.5.71)[0m cnn44_d256_k4 (Conv1D)       (None, 98, 256)           262400    
[2m[36m(pid=8906, ip=10.128.5.71)[0m _________________________________________________________________
[2m[36m(pid=8906, ip=10.128.5.71)[0m aca44 (LeakyReLU)            (None, 98, 256)           0         
[2m[36m(pid=8906, ip=10.128.5.71)[0m _________________________________________________________________
[2m[36m(pid=8906, ip=10.128.5.71)[0m cnn45_d256_k4 (Conv1D)       (None, 95, 256)           262400    
[2m[36m(pid=8906, ip=10.128.5.71)[0m _________________________________________________________________
[2m[36m(pid=8906, ip=10.128.5.71)[0m aca45 (LeakyReLU)            (None, 95, 256)           0         
[2m[36m(pid=8906, ip=10.128.5.71)[0m _________________________________________________________________
[2m[36m(pid=8906, ip=10.128.5.71)[0m cnn46_d256_k4 (Conv1D)       (None, 92, 256)           262400    
[2m[36m(pid=8906, ip=10.128.5.71)[0m _________________________________________________________________
[2m[36m(pid=8906, ip=10.128.5.71)[0m aca46 (LeakyReLU)            (None, 92, 256)           0         
[2m[36m(pid=8906, ip=10.128.5.71)[0m _________________________________________________________________
[2m[36m(pid=8906, ip=10.128.5.71)[0m cnn47_d256_k4 (Conv1D)       (None, 89, 256)           262400    
[2m[36m(pid=8906, ip=10.128.5.71)[0m _________________________________________________________________
[2m[36m(pid=8906, ip=10.128.5.71)[0m aca47 (LeakyReLU)            (None, 89, 256)           0         
[2m[36m(pid=8906, ip=10.128.5.71)[0m _________________________________________________________________
[2m[36m(pid=8906, ip=10.128.5.71)[0m cnn48_d256_k4 (Conv1D)       (None, 86, 256)           262400    
[2m[36m(pid=8906, ip=10.128.5.71)[0m _________________________________________________________________
[2m[36m(pid=8906, ip=10.128.5.71)[0m aca48 (LeakyReLU)            (None, 86, 256)           0         
[2m[36m(pid=8906, ip=10.128.5.71)[0m _________________________________________________________________
[2m[36m(pid=8906, ip=10.128.5.71)[0m cnn49_d256_k4 (Conv1D)       (None, 83, 256)           262400    
[2m[36m(pid=8906, ip=10.128.5.71)[0m _________________________________________________________________
[2m[36m(pid=8906, ip=10.128.5.71)[0m aca49 (LeakyReLU)            (None, 83, 256)           0         
[2m[36m(pid=8906, ip=10.128.5.71)[0m _________________________________________________________________
[2m[36m(pid=8906, ip=10.128.5.71)[0m pool_49 (MaxPooling1D)       (None, 41, 256)           0         
[2m[36m(pid=8906, ip=10.128.5.71)[0m _________________________________________________________________
[2m[36m(pid=8906, ip=10.128.5.71)[0m to_1d (Flatten)              (None, 10496)             0         
[2m[36m(pid=8906, ip=10.128.5.71)[0m _________________________________________________________________
[2m[36m(pid=8906, ip=10.128.5.71)[0m fdrop (Dropout)              (None, 10496)             0         
[2m[36m(pid=8906, ip=10.128.5.71)[0m _________________________________________________________________
[2m[36m(pid=8906, ip=10.128.5.71)[0m fc0 (Dense)                  (None, 512)               5374464   
[2m[36m(pid=8906, ip=10.128.5.71)[0m _________________________________________________________________
[2m[36m(pid=8906, ip=10.128.5.71)[0m acb0 (LeakyReLU)             (None, 512)               0         
[2m[36m(pid=8906, ip=10.128.5.71)[0m _________________________________________________________________
[2m[36m(pid=8906, ip=10.128.5.71)[0m drop0 (Dropout)              (None, 512)               0         
[2m[36m(pid=8906, ip=10.128.5.71)[0m _________________________________________________________________
[2m[36m(pid=8906, ip=10.128.5.71)[0m fc1 (Dense)                  (None, 512)               262656    
[2m[36m(pid=8906, ip=10.128.5.71)[0m _________________________________________________________________
[2m[36m(pid=8906, ip=10.128.5.71)[0m acb1 (LeakyReLU)             (None, 512)               0         
[2m[36m(pid=8906, ip=10.128.5.71)[0m _________________________________________________________________
[2m[36m(pid=8906, ip=10.128.5.71)[0m drop1 (Dropout)              (None, 512)               0         
[2m[36m(pid=8906, ip=10.128.5.71)[0m _________________________________________________________________
[2m[36m(pid=8906, ip=10.128.5.71)[0m fc2 (Dense)                  (None, 496)               254448    
[2m[36m(pid=8906, ip=10.128.5.71)[0m _________________________________________________________________
[2m[36m(pid=8906, ip=10.128.5.71)[0m acb2 (LeakyReLU)             (None, 496)               0         
[2m[36m(pid=8906, ip=10.128.5.71)[0m _________________________________________________________________
[2m[36m(pid=8906, ip=10.128.5.71)[0m drop2 (Dropout)              (None, 496)               0         
[2m[36m(pid=8906, ip=10.128.5.71)[0m _________________________________________________________________
[2m[36m(pid=8906, ip=10.128.5.71)[0m fc3 (Dense)                  (None, 124)               61628     
[2m[36m(pid=8906, ip=10.128.5.71)[0m _________________________________________________________________
[2m[36m(pid=8906, ip=10.128.5.71)[0m acb3 (LeakyReLU)             (None, 124)               0         
[2m[36m(pid=8906, ip=10.128.5.71)[0m _________________________________________________________________
[2m[36m(pid=8906, ip=10.128.5.71)[0m drop3 (Dropout)              (None, 124)               0         
[2m[36m(pid=8906, ip=10.128.5.71)[0m _________________________________________________________________
[2m[36m(pid=8906, ip=10.128.5.71)[0m fc4 (Dense)                  (None, 31)                3875      
[2m[36m(pid=8906, ip=10.128.5.71)[0m _________________________________________________________________
[2m[36m(pid=8906, ip=10.128.5.71)[0m acb4 (LeakyReLU)             (None, 31)                0         
[2m[36m(pid=8906, ip=10.128.5.71)[0m _________________________________________________________________
[2m[36m(pid=8906, ip=10.128.5.71)[0m drop4 (Dropout)              (None, 31)                0         
[2m[36m(pid=8906, ip=10.128.5.71)[0m _________________________________________________________________
[2m[36m(pid=8906, ip=10.128.5.71)[0m out_tanh (Dense)             (None, 18)                576       
[2m[36m(pid=8906, ip=10.128.5.71)[0m _________________________________________________________________
[2m[36m(pid=8906, ip=10.128.5.71)[0m scaleAmpl_1.2 (Lambda)       (None, 18)                0         
[2m[36m(pid=8906, ip=10.128.5.71)[0m =================================================================
[2m[36m(pid=8906, ip=10.128.5.71)[0m Total params: 11,880,987
[2m[36m(pid=8906, ip=10.128.5.71)[0m Trainable params: 11,880,965
[2m[36m(pid=8906, ip=10.128.5.71)[0m Non-trainable params: 22
[2m[36m(pid=8906, ip=10.128.5.71)[0m _________________________________________________________________
…
[2m[36m(pid=3702, ip=10.128.5.68)[0m Model: "model"
[2m[36m(pid=3702, ip=10.128.5.68)[0m _________________________________________________________________
[2m[36m(pid=3702, ip=10.128.5.68)[0m Layer (type)                 Output Shape              Param #   
[2m[36m(pid=3702, ip=10.128.5.68)[0m =================================================================
[2m[36m(pid=3702, ip=10.128.5.68)[0m trace_8000 (InputLayer)      [(None, 8000, 11)]        0         
[2m[36m(pid=3702, ip=10.128.5.68)[0m _________________________________________________________________
[2m[36m(pid=3702, ip=10.128.5.68)[0m inp_BN_cast (BatchNormalizat (None, 8000, 11)          44        
[2m[36m(pid=3702, ip=10.128.5.68)[0m _________________________________________________________________
[2m[36m(pid=3702, ip=10.128.5.68)[0m cnn1_d64_k6 (Conv1D)         (None, 7995, 64)          4288      
[2m[36m(pid=3702, ip=10.128.5.68)[0m _________________________________________________________________
[2m[36m(pid=3702, ip=10.128.5.68)[0m aca1 (LeakyReLU)             (None, 7995, 64)          0         
[2m[36m(pid=3702, ip=10.128.5.68)[0m _________________________________________________________________
[2m[36m(pid=3702, ip=10.128.5.68)[0m cnn2_d64_k6 (Conv1D)         (None, 7990, 64)          24640     
[2m[36m(pid=3702, ip=10.128.5.68)[0m _________________________________________________________________
[2m[36m(pid=3702, ip=10.128.5.68)[0m aca2 (LeakyReLU)             (None, 7990, 64)          0         
[2m[36m(pid=3702, ip=10.128.5.68)[0m _________________________________________________________________
[2m[36m(pid=3702, ip=10.128.5.68)[0m cnn3_d64_k6 (Conv1D)         (None, 7985, 64)          24640     
[2m[36m(pid=3702, ip=10.128.5.68)[0m _________________________________________________________________
[2m[36m(pid=3702, ip=10.128.5.68)[0m aca3 (LeakyReLU)             (None, 7985, 64)          0         
[2m[36m(pid=3702, ip=10.128.5.68)[0m _________________________________________________________________
[2m[36m(pid=3702, ip=10.128.5.68)[0m cnn4_d64_k6 (Conv1D)         (None, 7980, 64)          24640     
[2m[36m(pid=3702, ip=10.128.5.68)[0m _________________________________________________________________
[2m[36m(pid=3702, ip=10.128.5.68)[0m aca4 (LeakyReLU)             (None, 7980, 64)          0         
[2m[36m(pid=3702, ip=10.128.5.68)[0m _________________________________________________________________
[2m[36m(pid=3702, ip=10.128.5.68)[0m cnn5_d64_k6 (Conv1D)         (None, 7975, 64)          24640     
[2m[36m(pid=3702, ip=10.128.5.68)[0m _________________________________________________________________
[2m[36m(pid=3702, ip=10.128.5.68)[0m aca5 (LeakyReLU)             (None, 7975, 64)          0         
[2m[36m(pid=3702, ip=10.128.5.68)[0m _________________________________________________________________
[2m[36m(pid=3702, ip=10.128.5.68)[0m cnn6_d64_k6 (Conv1D)         (None, 7970, 64)          24640     
[2m[36m(pid=3702, ip=10.128.5.68)[0m _________________________________________________________________
[2m[36m(pid=3702, ip=10.128.5.68)[0m aca6 (LeakyReLU)             (None, 7970, 64)          0         
[2m[36m(pid=3702, ip=10.128.5.68)[0m _________________________________________________________________
[2m[36m(pid=3702, ip=10.128.5.68)[0m cnn7_d64_k6 (Conv1D)         (None, 7965, 64)          24640     
[2m[36m(pid=3702, ip=10.128.5.68)[0m _________________________________________________________________
[2m[36m(pid=3702, ip=10.128.5.68)[0m aca7 (LeakyReLU)             (None, 7965, 64)          0         
[2m[36m(pid=3702, ip=10.128.5.68)[0m _________________________________________________________________
[2m[36m(pid=3702, ip=10.128.5.68)[0m pool_7 (MaxPooling1D)        (None, 7965, 64)          0         
[2m[36m(pid=3702, ip=10.128.5.68)[0m _________________________________________________________________
[2m[36m(pid=3702, ip=10.128.5.68)[0m cnn8_d128_k6 (Conv1D)        (None, 7960, 128)         49280     
[2m[36m(pid=3702, ip=10.128.5.68)[0m _________________________________________________________________
[2m[36m(pid=3702, ip=10.128.5.68)[0m aca8 (LeakyReLU)             (None, 7960, 128)         0         
[2m[36m(pid=3702, ip=10.128.5.68)[0m _________________________________________________________________
[2m[36m(pid=3702, ip=10.128.5.68)[0m cnn9_d128_k6 (Conv1D)        (None, 7955, 128)         98432     
[2m[36m(pid=3702, ip=10.128.5.68)[0m _________________________________________________________________
[2m[36m(pid=3702, ip=10.128.5.68)[0m aca9 (LeakyReLU)             (None, 7955, 128)         0         
[2m[36m(pid=3702, ip=10.128.5.68)[0m _________________________________________________________________
[2m[36m(pid=3702, ip=10.128.5.68)[0m cnn10_d128_k6 (Conv1D)       (None, 7950, 128)         98432     
[2m[36m(pid=3702, ip=10.128.5.68)[0m _________________________________________________________________
[2m[36m(pid=3702, ip=10.128.5.68)[0m aca10 (LeakyReLU)            (None, 7950, 128)         0         
[2m[36m(pid=3702, ip=10.128.5.68)[0m _________________________________________________________________
[2m[36m(pid=3702, ip=10.128.5.68)[0m cnn11_d128_k6 (Conv1D)       (None, 7945, 128)         98432     
[2m[36m(pid=3702, ip=10.128.5.68)[0m _________________________________________________________________
[2m[36m(pid=3702, ip=10.128.5.68)[0m aca11 (LeakyReLU)            (None, 7945, 128)         0         
[2m[36m(pid=3702, ip=10.128.5.68)[0m _________________________________________________________________
[2m[36m(pid=3702, ip=10.128.5.68)[0m cnn12_d128_k6 (Conv1D)       (None, 7940, 128)         98432     
[2m[36m(pid=3702, ip=10.128.5.68)[0m _________________________________________________________________
[2m[36m(pid=3702, ip=10.128.5.68)[0m aca12 (LeakyReLU)            (None, 7940, 128)         0         
[2m[36m(pid=3702, ip=10.128.5.68)[0m _________________________________________________________________
[2m[36m(pid=3702, ip=10.128.5.68)[0m cnn13_d128_k6 (Conv1D)       (None, 7935, 128)         98432     
[2m[36m(pid=3702, ip=10.128.5.68)[0m _________________________________________________________________
[2m[36m(pid=3702, ip=10.128.5.68)[0m aca13 (LeakyReLU)            (None, 7935, 128)         0         
[2m[36m(pid=3702, ip=10.128.5.68)[0m _________________________________________________________________
[2m[36m(pid=3702, ip=10.128.5.68)[0m cnn14_d128_k6 (Conv1D)       (None, 7930, 128)         98432     
[2m[36m(pid=3702, ip=10.128.5.68)[0m _________________________________________________________________
[2m[36m(pid=3702, ip=10.128.5.68)[0m aca14 (LeakyReLU)            (None, 7930, 128)         0         
[2m[36m(pid=3702, ip=10.128.5.68)[0m _________________________________________________________________
[2m[36m(pid=3702, ip=10.128.5.68)[0m pool_14 (MaxPooling1D)       (None, 7930, 128)         0         
[2m[36m(pid=3702, ip=10.128.5.68)[0m _________________________________________________________________
[2m[36m(pid=3702, ip=10.128.5.68)[0m cnn15_d256_k6 (Conv1D)       (None, 7925, 256)         196864    
[2m[36m(pid=3702, ip=10.128.5.68)[0m _________________________________________________________________
[2m[36m(pid=3702, ip=10.128.5.68)[0m aca15 (LeakyReLU)            (None, 7925, 256)         0         
[2m[36m(pid=3702, ip=10.128.5.68)[0m _________________________________________________________________
[2m[36m(pid=3702, ip=10.128.5.68)[0m cnn16_d256_k6 (Conv1D)       (None, 7920, 256)         393472    
[2m[36m(pid=3702, ip=10.128.5.68)[0m _________________________________________________________________
[2m[36m(pid=3702, ip=10.128.5.68)[0m aca16 (LeakyReLU)            (None, 7920, 256)         0         
[2m[36m(pid=3702, ip=10.128.5.68)[0m _________________________________________________________________
[2m[36m(pid=3702, ip=10.128.5.68)[0m cnn17_d256_k6 (Conv1D)       (None, 7915, 256)         393472    
[2m[36m(pid=3702, ip=10.128.5.68)[0m _________________________________________________________________
[2m[36m(pid=3702, ip=10.128.5.68)[0m aca17 (LeakyReLU)            (None, 7915, 256)         0         
[2m[36m(pid=3702, ip=10.128.5.68)[0m _________________________________________________________________
[2m[36m(pid=3702, ip=10.128.5.68)[0m cnn18_d256_k6 (Conv1D)       (None, 7910, 256)         393472    
[2m[36m(pid=3702, ip=10.128.5.68)[0m _________________________________________________________________
[2m[36m(pid=3702, ip=10.128.5.68)[0m aca18 (LeakyReLU)            (None, 7910, 256)         0         
[2m[36m(pid=3702, ip=10.128.5.68)[0m _________________________________________________________________
[2m[36m(pid=3702, ip=10.128.5.68)[0m cnn19_d256_k6 (Conv1D)       (None, 7905, 256)         393472    
[2m[36m(pid=3702, ip=10.128.5.68)[0m _________________________________________________________________
[2m[36m(pid=3702, ip=10.128.5.68)[0m aca19 (LeakyReLU)            (None, 7905, 256)         0         
[2m[36m(pid=3702, ip=10.128.5.68)[0m _________________________________________________________________
[2m[36m(pid=3702, ip=10.128.5.68)[0m cnn20_d256_k6 (Conv1D)       (None, 7900, 256)         393472    
[2m[36m(pid=3702, ip=10.128.5.68)[0m _________________________________________________________________
[2m[36m(pid=3702, ip=10.128.5.68)[0m aca20 (LeakyReLU)            (None, 7900, 256)         0         
[2m[36m(pid=3702, ip=10.128.5.68)[0m _________________________________________________________________
[2m[36m(pid=3702, ip=10.128.5.68)[0m cnn21_d256_k6 (Conv1D)       (None, 7895, 256)         393472    
[2m[36m(pid=3702, ip=10.128.5.68)[0m _________________________________________________________________
[2m[36m(pid=3702, ip=10.128.5.68)[0m aca21 (LeakyReLU)            (None, 7895, 256)         0         
[2m[36m(pid=3702, ip=10.128.5.68)[0m _________________________________________________________________
[2m[36m(pid=3702, ip=10.128.5.68)[0m pool_21 (MaxPooling1D)       (None, 7895, 256)         0         
[2m[36m(pid=3702, ip=10.128.5.68)[0m _________________________________________________________________
[2m[36m(pid=3702, ip=10.128.5.68)[0m cnn22_d256_k6 (Conv1D)       (None, 7890, 256)         393472    
[2m[36m(pid=3702, ip=10.128.5.68)[0m _________________________________________________________________
[2m[36m(pid=3702, ip=10.128.5.68)[0m aca22 (LeakyReLU)            (None, 7890, 256)         0         
[2m[36m(pid=3702, ip=10.128.5.68)[0m _________________________________________________________________
[2m[36m(pid=3702, ip=10.128.5.68)[0m cnn23_d256_k6 (Conv1D)       (None, 7885, 256)         393472    
[2m[36m(pid=3702, ip=10.128.5.68)[0m _________________________________________________________________
[2m[36m(pid=3702, ip=10.128.5.68)[0m aca23 (LeakyReLU)            (None, 7885, 256)         0         
[2m[36m(pid=3702, ip=10.128.5.68)[0m _________________________________________________________________
[2m[36m(pid=3702, ip=10.128.5.68)[0m cnn24_d256_k6 (Conv1D)       (None, 7880, 256)         393472    
[2m[36m(pid=3702, ip=10.128.5.68)[0m _________________________________________________________________
[2m[36m(pid=3702, ip=10.128.5.68)[0m aca24 (LeakyReLU)            (None, 7880, 256)         0         
[2m[36m(pid=3702, ip=10.128.5.68)[0m _________________________________________________________________
[2m[36m(pid=3702, ip=10.128.5.68)[0m cnn25_d256_k6 (Conv1D)       (None, 7875, 256)         393472    
[2m[36m(pid=3702, ip=10.128.5.68)[0m _________________________________________________________________
[2m[36m(pid=3702, ip=10.128.5.68)[0m aca25 (LeakyReLU)            (None, 7875, 256)         0         
[2m[36m(pid=3702, ip=10.128.5.68)[0m _________________________________________________________________
[2m[36m(pid=3702, ip=10.128.5.68)[0m cnn26_d256_k6 (Conv1D)       (None, 7870, 256)         393472    
[2m[36m(pid=3702, ip=10.128.5.68)[0m _________________________________________________________________
[2m[36m(pid=3702, ip=10.128.5.68)[0m aca26 (LeakyReLU)            (None, 7870, 256)         0         
[2m[36m(pid=3702, ip=10.128.5.68)[0m _________________________________________________________________
[2m[36m(pid=3702, ip=10.128.5.68)[0m cnn27_d256_k6 (Conv1D)       (None, 7865, 256)         393472    
[2m[36m(pid=3702, ip=10.128.5.68)[0m _________________________________________________________________
[2m[36m(pid=3702, ip=10.128.5.68)[0m aca27 (LeakyReLU)            (None, 7865, 256)         0         
[2m[36m(pid=3702, ip=10.128.5.68)[0m _________________________________________________________________
[2m[36m(pid=3702, ip=10.128.5.68)[0m cnn28_d256_k6 (Conv1D)       (None, 7860, 256)         393472    
[2m[36m(pid=3702, ip=10.128.5.68)[0m _________________________________________________________________
[2m[36m(pid=3702, ip=10.128.5.68)[0m aca28 (LeakyReLU)            (None, 7860, 256)         0         
[2m[36m(pid=3702, ip=10.128.5.68)[0m _________________________________________________________________
[2m[36m(pid=3702, ip=10.128.5.68)[0m pool_28 (MaxPooling1D)       (None, 7860, 256)         0         
[2m[36m(pid=3702, ip=10.128.5.68)[0m _________________________________________________________________
[2m[36m(pid=3702, ip=10.128.5.68)[0m cnn29_d256_k6 (Conv1D)       (None, 7855, 256)         393472    
[2m[36m(pid=3702, ip=10.128.5.68)[0m _________________________________________________________________
[2m[36m(pid=3702, ip=10.128.5.68)[0m aca29 (LeakyReLU)            (None, 7855, 256)         0         
[2m[36m(pid=3702, ip=10.128.5.68)[0m _________________________________________________________________
[2m[36m(pid=3702, ip=10.128.5.68)[0m cnn30_d256_k6 (Conv1D)       (None, 7850, 256)         393472    
[2m[36m(pid=3702, ip=10.128.5.68)[0m _________________________________________________________________
[2m[36m(pid=3702, ip=10.128.5.68)[0m aca30 (LeakyReLU)            (None, 7850, 256)         0         
[2m[36m(pid=3702, ip=10.128.5.68)[0m _________________________________________________________________
[2m[36m(pid=3702, ip=10.128.5.68)[0m cnn31_d256_k6 (Conv1D)       (None, 7845, 256)         393472    
[2m[36m(pid=3702, ip=10.128.5.68)[0m _________________________________________________________________
[2m[36m(pid=3702, ip=10.128.5.68)[0m aca31 (LeakyReLU)            (None, 7845, 256)         0         
[2m[36m(pid=3702, ip=10.128.5.68)[0m _________________________________________________________________
[2m[36m(pid=3702, ip=10.128.5.68)[0m cnn32_d256_k6 (Conv1D)       (None, 7840, 256)         393472    
[2m[36m(pid=3702, ip=10.128.5.68)[0m _________________________________________________________________
[2m[36m(pid=3702, ip=10.128.5.68)[0m aca32 (LeakyReLU)            (None, 7840, 256)         0         
[2m[36m(pid=3702, ip=10.128.5.68)[0m _________________________________________________________________
[2m[36m(pid=3702, ip=10.128.5.68)[0m cnn33_d256_k6 (Conv1D)       (None, 7835, 256)         393472    
[2m[36m(pid=3702, ip=10.128.5.68)[0m _________________________________________________________________
[2m[36m(pid=3702, ip=10.128.5.68)[0m aca33 (LeakyReLU)            (None, 7835, 256)         0         
[2m[36m(pid=3702, ip=10.128.5.68)[0m _________________________________________________________________
[2m[36m(pid=3702, ip=10.128.5.68)[0m cnn34_d256_k6 (Conv1D)       (None, 7830, 256)         393472    
[2m[36m(pid=3702, ip=10.128.5.68)[0m _________________________________________________________________
[2m[36m(pid=3702, ip=10.128.5.68)[0m aca34 (LeakyReLU)            (None, 7830, 256)         0         
[2m[36m(pid=3702, ip=10.128.5.68)[0m _________________________________________________________________
[2m[36m(pid=3702, ip=10.128.5.68)[0m cnn35_d256_k6 (Conv1D)       (None, 7825, 256)         393472    
[2m[36m(pid=3702, ip=10.128.5.68)[0m _________________________________________________________________
[2m[36m(pid=3702, ip=10.128.5.68)[0m aca35 (LeakyReLU)            (None, 7825, 256)         0         
[2m[36m(pid=3702, ip=10.128.5.68)[0m _________________________________________________________________
[2m[36m(pid=3702, ip=10.128.5.68)[0m pool_35 (MaxPooling1D)       (None, 7825, 256)         0         
[2m[36m(pid=3702, ip=10.128.5.68)[0m _________________________________________________________________
[2m[36m(pid=3702, ip=10.128.5.68)[0m to_1d (Flatten)              (None, 2003200)           0         
[2m[36m(pid=3702, ip=10.128.5.68)[0m _________________________________________________________________
[2m[36m(pid=3702, ip=10.128.5.68)[0m fdrop (Dropout)              (None, 2003200)           0         
[2m[36m(pid=3702, ip=10.128.5.68)[0m _________________________________________________________________
[2m[36m(pid=3702, ip=10.128.5.68)[0m fc0 (Dense)                  (None, 62)                124198462 
[2m[36m(pid=3702, ip=10.128.5.68)[0m _________________________________________________________________
[2m[36m(pid=3702, ip=10.128.5.68)[0m acb0 (LeakyReLU)             (None, 62)                0         
[2m[36m(pid=3702, ip=10.128.5.68)[0m _________________________________________________________________
[2m[36m(pid=3702, ip=10.128.5.68)[0m drop0 (Dropout)              (None, 62)                0         
[2m[36m(pid=3702, ip=10.128.5.68)[0m _________________________________________________________________
[2m[36m(pid=3702, ip=10.128.5.68)[0m fc1 (Dense)                  (None, 31)                1953      
[2m[36m(pid=3702, ip=10.128.5.68)[0m _________________________________________________________________
[2m[36m(pid=3702, ip=10.128.5.68)[0m acb1 (LeakyReLU)             (None, 31)                0         
[2m[36m(pid=3702, ip=10.128.5.68)[0m _________________________________________________________________
[2m[36m(pid=3702, ip=10.128.5.68)[0m drop1 (Dropout)              (None, 31)                0         
[2m[36m(pid=3702, ip=10.128.5.68)[0m _________________________________________________________________
[2m[36m(pid=3702, ip=10.128.5.68)[0m fc2 (Dense)                  (None, 31)                992       
[2m[36m(pid=3702, ip=10.128.5.68)[0m _________________________________________________________________
[2m[36m(pid=3702, ip=10.128.5.68)[0m acb2 (LeakyReLU)             (None, 31)                0         
[2m[36m(pid=3702, ip=10.128.5.68)[0m _________________________________________________________________
[2m[36m(pid=3702, ip=10.128.5.68)[0m drop2 (Dropout)              (None, 31)                0         
[2m[36m(pid=3702, ip=10.128.5.68)[0m _________________________________________________________________
[2m[36m(pid=3702, ip=10.128.5.68)[0m out_tanh (Dense)             (None, 18)                576       
[2m[36m(pid=3702, ip=10.128.5.68)[0m _________________________________________________________________
[2m[36m(pid=3702, ip=10.128.5.68)[0m scaleAmpl_1.2 (Lambda)       (None, 18)                0         
[2m[36m(pid=3702, ip=10.128.5.68)[0m =================================================================
[2m[36m(pid=3702, ip=10.128.5.68)[0m Total params: 133,060,331
[2m[36m(pid=3702, ip=10.128.5.68)[0m Trainable params: 133,060,309
[2m[36m(pid=3702, ip=10.128.5.68)[0m Non-trainable params: 22
[2m[36m(pid=3702, ip=10.128.5.68)[0m _________________________________________________________________
…
[2m[36m(pid=3707, ip=10.128.5.68)[0m Model: "model"
[2m[36m(pid=3707, ip=10.128.5.68)[0m _________________________________________________________________
[2m[36m(pid=3707, ip=10.128.5.68)[0m Layer (type)                 Output Shape              Param #   
[2m[36m(pid=3707, ip=10.128.5.68)[0m =================================================================
[2m[36m(pid=3707, ip=10.128.5.68)[0m trace_8000 (InputLayer)      [(None, 8000, 11)]        0         
[2m[36m(pid=3707, ip=10.128.5.68)[0m _________________________________________________________________
[2m[36m(pid=3707, ip=10.128.5.68)[0m inp_BN_cast (BatchNormalizat (None, 8000, 11)          44        
[2m[36m(pid=3707, ip=10.128.5.68)[0m _________________________________________________________________
[2m[36m(pid=3707, ip=10.128.5.68)[0m cnn1_d64_k5 (Conv1D)         (None, 7996, 64)          3584      
[2m[36m(pid=3707, ip=10.128.5.68)[0m _________________________________________________________________
[2m[36m(pid=3707, ip=10.128.5.68)[0m aca1 (LeakyReLU)             (None, 7996, 64)          0         
[2m[36m(pid=3707, ip=10.128.5.68)[0m _________________________________________________________________
[2m[36m(pid=3707, ip=10.128.5.68)[0m cnn2_d64_k5 (Conv1D)         (None, 7992, 64)          20544     
[2m[36m(pid=3707, ip=10.128.5.68)[0m _________________________________________________________________
[2m[36m(pid=3707, ip=10.128.5.68)[0m aca2 (LeakyReLU)             (None, 7992, 64)          0         
[2m[36m(pid=3707, ip=10.128.5.68)[0m _________________________________________________________________
[2m[36m(pid=3707, ip=10.128.5.68)[0m cnn3_d64_k5 (Conv1D)         (None, 7988, 64)          20544     
[2m[36m(pid=3707, ip=10.128.5.68)[0m _________________________________________________________________
[2m[36m(pid=3707, ip=10.128.5.68)[0m aca3 (LeakyReLU)             (None, 7988, 64)          0         
[2m[36m(pid=3707, ip=10.128.5.68)[0m _________________________________________________________________
[2m[36m(pid=3707, ip=10.128.5.68)[0m cnn4_d64_k5 (Conv1D)         (None, 7984, 64)          20544     
[2m[36m(pid=3707, ip=10.128.5.68)[0m _________________________________________________________________
[2m[36m(pid=3707, ip=10.128.5.68)[0m aca4 (LeakyReLU)             (None, 7984, 64)          0         
[2m[36m(pid=3707, ip=10.128.5.68)[0m _________________________________________________________________
[2m[36m(pid=3707, ip=10.128.5.68)[0m cnn5_d64_k5 (Conv1D)         (None, 7980, 64)          20544     
[2m[36m(pid=3707, ip=10.128.5.68)[0m _________________________________________________________________
[2m[36m(pid=3707, ip=10.128.5.68)[0m aca5 (LeakyReLU)             (None, 7980, 64)          0         
[2m[36m(pid=3707, ip=10.128.5.68)[0m _________________________________________________________________
[2m[36m(pid=3707, ip=10.128.5.68)[0m cnn6_d64_k5 (Conv1D)         (None, 7976, 64)          20544     
[2m[36m(pid=3707, ip=10.128.5.68)[0m _________________________________________________________________
[2m[36m(pid=3707, ip=10.128.5.68)[0m aca6 (LeakyReLU)             (None, 7976, 64)          0         
[2m[36m(pid=3707, ip=10.128.5.68)[0m _________________________________________________________________
[2m[36m(pid=3707, ip=10.128.5.68)[0m pool_6 (MaxPooling1D)        (None, 3988, 64)          0         
[2m[36m(pid=3707, ip=10.128.5.68)[0m _________________________________________________________________
[2m[36m(pid=3707, ip=10.128.5.68)[0m cnn7_d64_k5 (Conv1D)         (None, 3984, 64)          20544     
[2m[36m(pid=3707, ip=10.128.5.68)[0m _________________________________________________________________
[2m[36m(pid=3707, ip=10.128.5.68)[0m aca7 (LeakyReLU)             (None, 3984, 64)          0         
[2m[36m(pid=3707, ip=10.128.5.68)[0m _________________________________________________________________
[2m[36m(pid=3707, ip=10.128.5.68)[0m cnn8_d64_k5 (Conv1D)         (None, 3980, 64)          20544     
[2m[36m(pid=3707, ip=10.128.5.68)[0m _________________________________________________________________
[2m[36m(pid=3707, ip=10.128.5.68)[0m aca8 (LeakyReLU)             (None, 3980, 64)          0         
[2m[36m(pid=3707, ip=10.128.5.68)[0m _________________________________________________________________
[2m[36m(pid=3707, ip=10.128.5.68)[0m cnn9_d64_k5 (Conv1D)         (None, 3976, 64)          20544     
[2m[36m(pid=3707, ip=10.128.5.68)[0m _________________________________________________________________
[2m[36m(pid=3707, ip=10.128.5.68)[0m aca9 (LeakyReLU)             (None, 3976, 64)          0         
[2m[36m(pid=3707, ip=10.128.5.68)[0m _________________________________________________________________
[2m[36m(pid=3707, ip=10.128.5.68)[0m cnn10_d64_k5 (Conv1D)        (None, 3972, 64)          20544     
[2m[36m(pid=3707, ip=10.128.5.68)[0m _________________________________________________________________
[2m[36m(pid=3707, ip=10.128.5.68)[0m aca10 (LeakyReLU)            (None, 3972, 64)          0         
[2m[36m(pid=3707, ip=10.128.5.68)[0m _________________________________________________________________
[2m[36m(pid=3707, ip=10.128.5.68)[0m cnn11_d64_k5 (Conv1D)        (None, 3968, 64)          20544     
[2m[36m(pid=3707, ip=10.128.5.68)[0m _________________________________________________________________
[2m[36m(pid=3707, ip=10.128.5.68)[0m aca11 (LeakyReLU)            (None, 3968, 64)          0         
[2m[36m(pid=3707, ip=10.128.5.68)[0m _________________________________________________________________
[2m[36m(pid=3707, ip=10.128.5.68)[0m cnn12_d64_k5 (Conv1D)        (None, 3964, 64)          20544     
[2m[36m(pid=3707, ip=10.128.5.68)[0m _________________________________________________________________
[2m[36m(pid=3707, ip=10.128.5.68)[0m aca12 (LeakyReLU)            (None, 3964, 64)          0         
[2m[36m(pid=3707, ip=10.128.5.68)[0m _________________________________________________________________
[2m[36m(pid=3707, ip=10.128.5.68)[0m pool_12 (MaxPooling1D)       (None, 1982, 64)          0         
[2m[36m(pid=3707, ip=10.128.5.68)[0m _________________________________________________________________
[2m[36m(pid=3707, ip=10.128.5.68)[0m cnn13_d256_k5 (Conv1D)       (None, 1978, 256)         82176     
[2m[36m(pid=3707, ip=10.128.5.68)[0m _________________________________________________________________
[2m[36m(pid=3707, ip=10.128.5.68)[0m aca13 (LeakyReLU)            (None, 1978, 256)         0         
[2m[36m(pid=3707, ip=10.128.5.68)[0m _________________________________________________________________
[2m[36m(pid=3707, ip=10.128.5.68)[0m cnn14_d256_k5 (Conv1D)       (None, 1974, 256)         327936    
[2m[36m(pid=3707, ip=10.128.5.68)[0m _________________________________________________________________
[2m[36m(pid=3707, ip=10.128.5.68)[0m aca14 (LeakyReLU)            (None, 1974, 256)         0         
[2m[36m(pid=3707, ip=10.128.5.68)[0m _________________________________________________________________
[2m[36m(pid=3707, ip=10.128.5.68)[0m cnn15_d256_k5 (Conv1D)       (None, 1970, 256)         327936    
[2m[36m(pid=3707, ip=10.128.5.68)[0m _________________________________________________________________
[2m[36m(pid=3707, ip=10.128.5.68)[0m aca15 (LeakyReLU)            (None, 1970, 256)         0         
[2m[36m(pid=3707, ip=10.128.5.68)[0m _________________________________________________________________
[2m[36m(pid=3707, ip=10.128.5.68)[0m cnn16_d256_k5 (Conv1D)       (None, 1966, 256)         327936    
[2m[36m(pid=3707, ip=10.128.5.68)[0m _________________________________________________________________
[2m[36m(pid=3707, ip=10.128.5.68)[0m aca16 (LeakyReLU)            (None, 1966, 256)         0         
[2m[36m(pid=3707, ip=10.128.5.68)[0m _________________________________________________________________
[2m[36m(pid=3707, ip=10.128.5.68)[0m cnn17_d256_k5 (Conv1D)       (None, 1962, 256)         327936    
[2m[36m(pid=3707, ip=10.128.5.68)[0m _________________________________________________________________
[2m[36m(pid=3707, ip=10.128.5.68)[0m aca17 (LeakyReLU)            (None, 1962, 256)         0         
[2m[36m(pid=3707, ip=10.128.5.68)[0m _________________________________________________________________
[2m[36m(pid=3707, ip=10.128.5.68)[0m cnn18_d256_k5 (Conv1D)       (None, 1958, 256)         327936    
[2m[36m(pid=3707, ip=10.128.5.68)[0m _________________________________________________________________
[2m[36m(pid=3707, ip=10.128.5.68)[0m aca18 (LeakyReLU)            (None, 1958, 256)         0         
[2m[36m(pid=3707, ip=10.128.5.68)[0m _________________________________________________________________
[2m[36m(pid=3707, ip=10.128.5.68)[0m pool_18 (MaxPooling1D)       (None, 979, 256)          0         
[2m[36m(pid=3707, ip=10.128.5.68)[0m _________________________________________________________________
[2m[36m(pid=3707, ip=10.128.5.68)[0m cnn19_d256_k5 (Conv1D)       (None, 975, 256)          327936    
[2m[36m(pid=3707, ip=10.128.5.68)[0m _________________________________________________________________
[2m[36m(pid=3707, ip=10.128.5.68)[0m aca19 (LeakyReLU)            (None, 975, 256)          0         
[2m[36m(pid=3707, ip=10.128.5.68)[0m _________________________________________________________________
[2m[36m(pid=3707, ip=10.128.5.68)[0m cnn20_d256_k5 (Conv1D)       (None, 971, 256)          327936    
[2m[36m(pid=3707, ip=10.128.5.68)[0m _________________________________________________________________
[2m[36m(pid=3707, ip=10.128.5.68)[0m aca20 (LeakyReLU)            (None, 971, 256)          0         
[2m[36m(pid=3707, ip=10.128.5.68)[0m _________________________________________________________________
[2m[36m(pid=3707, ip=10.128.5.68)[0m cnn21_d256_k5 (Conv1D)       (None, 967, 256)          327936    
[2m[36m(pid=3707, ip=10.128.5.68)[0m _________________________________________________________________
[2m[36m(pid=3707, ip=10.128.5.68)[0m aca21 (LeakyReLU)            (None, 967, 256)          0         
[2m[36m(pid=3707, ip=10.128.5.68)[0m _________________________________________________________________
[2m[36m(pid=3707, ip=10.128.5.68)[0m cnn22_d256_k5 (Conv1D)       (None, 963, 256)          327936    
[2m[36m(pid=3707, ip=10.128.5.68)[0m _________________________________________________________________
[2m[36m(pid=3707, ip=10.128.5.68)[0m aca22 (LeakyReLU)            (None, 963, 256)          0         
[2m[36m(pid=3707, ip=10.128.5.68)[0m _________________________________________________________________
[2m[36m(pid=3707, ip=10.128.5.68)[0m cnn23_d256_k5 (Conv1D)       (None, 959, 256)          327936    
[2m[36m(pid=3707, ip=10.128.5.68)[0m _________________________________________________________________
[2m[36m(pid=3707, ip=10.128.5.68)[0m aca23 (LeakyReLU)            (None, 959, 256)          0         
[2m[36m(pid=3707, ip=10.128.5.68)[0m _________________________________________________________________
[2m[36m(pid=3707, ip=10.128.5.68)[0m cnn24_d256_k5 (Conv1D)       (None, 955, 256)          327936    
[2m[36m(pid=3707, ip=10.128.5.68)[0m _________________________________________________________________
[2m[36m(pid=3707, ip=10.128.5.68)[0m aca24 (LeakyReLU)            (None, 955, 256)          0         
[2m[36m(pid=3707, ip=10.128.5.68)[0m _________________________________________________________________
[2m[36m(pid=3707, ip=10.128.5.68)[0m pool_24 (MaxPooling1D)       (None, 477, 256)          0         
[2m[36m(pid=3707, ip=10.128.5.68)[0m _________________________________________________________________
[2m[36m(pid=3707, ip=10.128.5.68)[0m cnn25_d256_k5 (Conv1D)       (None, 473, 256)          327936    
[2m[36m(pid=3707, ip=10.128.5.68)[0m _________________________________________________________________
[2m[36m(pid=3707, ip=10.128.5.68)[0m aca25 (LeakyReLU)            (None, 473, 256)          0         
[2m[36m(pid=3707, ip=10.128.5.68)[0m _________________________________________________________________
[2m[36m(pid=3707, ip=10.128.5.68)[0m cnn26_d256_k5 (Conv1D)       (None, 469, 256)          327936    
[2m[36m(pid=3707, ip=10.128.5.68)[0m _________________________________________________________________
[2m[36m(pid=3707, ip=10.128.5.68)[0m aca26 (LeakyReLU)            (None, 469, 256)          0         
[2m[36m(pid=3707, ip=10.128.5.68)[0m _________________________________________________________________
[2m[36m(pid=3707, ip=10.128.5.68)[0m cnn27_d256_k5 (Conv1D)       (None, 465, 256)          327936    
[2m[36m(pid=3707, ip=10.128.5.68)[0m _________________________________________________________________
[2m[36m(pid=3707, ip=10.128.5.68)[0m aca27 (LeakyReLU)            (None, 465, 256)          0         
[2m[36m(pid=3707, ip=10.128.5.68)[0m _________________________________________________________________
[2m[36m(pid=3707, ip=10.128.5.68)[0m cnn28_d256_k5 (Conv1D)       (None, 461, 256)          327936    
[2m[36m(pid=3707, ip=10.128.5.68)[0m _________________________________________________________________
[2m[36m(pid=3707, ip=10.128.5.68)[0m aca28 (LeakyReLU)            (None, 461, 256)          0         
[2m[36m(pid=3707, ip=10.128.5.68)[0m _________________________________________________________________
[2m[36m(pid=3707, ip=10.128.5.68)[0m cnn29_d256_k5 (Conv1D)       (None, 457, 256)          327936    
[2m[36m(pid=3707, ip=10.128.5.68)[0m _________________________________________________________________
[2m[36m(pid=3707, ip=10.128.5.68)[0m aca29 (LeakyReLU)            (None, 457, 256)          0         
[2m[36m(pid=3707, ip=10.128.5.68)[0m _________________________________________________________________
[2m[36m(pid=3707, ip=10.128.5.68)[0m cnn30_d256_k5 (Conv1D)       (None, 453, 256)          327936    
[2m[36m(pid=3707, ip=10.128.5.68)[0m _________________________________________________________________
[2m[36m(pid=3707, ip=10.128.5.68)[0m aca30 (LeakyReLU)            (None, 453, 256)          0         
[2m[36m(pid=3707, ip=10.128.5.68)[0m _________________________________________________________________
[2m[36m(pid=3707, ip=10.128.5.68)[0m pool_30 (MaxPooling1D)       (None, 226, 256)          0         
[2m[36m(pid=3707, ip=10.128.5.68)[0m _________________________________________________________________
[2m[36m(pid=3707, ip=10.128.5.68)[0m cnn31_d256_k5 (Conv1D)       (None, 222, 256)          327936    
[2m[36m(pid=3707, ip=10.128.5.68)[0m _________________________________________________________________
[2m[36m(pid=3707, ip=10.128.5.68)[0m aca31 (LeakyReLU)            (None, 222, 256)          0         
[2m[36m(pid=3707, ip=10.128.5.68)[0m _________________________________________________________________
[2m[36m(pid=3707, ip=10.128.5.68)[0m cnn32_d256_k5 (Conv1D)       (None, 218, 256)          327936    
[2m[36m(pid=3707, ip=10.128.5.68)[0m _________________________________________________________________
[2m[36m(pid=3707, ip=10.128.5.68)[0m aca32 (LeakyReLU)            (None, 218, 256)          0         
[2m[36m(pid=3707, ip=10.128.5.68)[0m _________________________________________________________________
[2m[36m(pid=3707, ip=10.128.5.68)[0m cnn33_d256_k5 (Conv1D)       (None, 214, 256)          327936    
[2m[36m(pid=3707, ip=10.128.5.68)[0m _________________________________________________________________
[2m[36m(pid=3707, ip=10.128.5.68)[0m aca33 (LeakyReLU)            (None, 214, 256)          0         
[2m[36m(pid=3707, ip=10.128.5.68)[0m _________________________________________________________________
[2m[36m(pid=3707, ip=10.128.5.68)[0m cnn34_d256_k5 (Conv1D)       (None, 210, 256)          327936    
[2m[36m(pid=3707, ip=10.128.5.68)[0m _________________________________________________________________
[2m[36m(pid=3707, ip=10.128.5.68)[0m aca34 (LeakyReLU)            (None, 210, 256)          0         
[2m[36m(pid=3707, ip=10.128.5.68)[0m _________________________________________________________________
[2m[36m(pid=3707, ip=10.128.5.68)[0m cnn35_d256_k5 (Conv1D)       (None, 206, 256)          327936    
[2m[36m(pid=3707, ip=10.128.5.68)[0m _________________________________________________________________
[2m[36m(pid=3707, ip=10.128.5.68)[0m aca35 (LeakyReLU)            (None, 206, 256)          0         
[2m[36m(pid=3707, ip=10.128.5.68)[0m _________________________________________________________________
[2m[36m(pid=3707, ip=10.128.5.68)[0m cnn36_d256_k5 (Conv1D)       (None, 202, 256)          327936    
[2m[36m(pid=3707, ip=10.128.5.68)[0m _________________________________________________________________
[2m[36m(pid=3707, ip=10.128.5.68)[0m aca36 (LeakyReLU)            (None, 202, 256)          0         
[2m[36m(pid=3707, ip=10.128.5.68)[0m _________________________________________________________________
[2m[36m(pid=3707, ip=10.128.5.68)[0m pool_36 (MaxPooling1D)       (None, 101, 256)          0         
[2m[36m(pid=3707, ip=10.128.5.68)[0m _________________________________________________________________
[2m[36m(pid=3707, ip=10.128.5.68)[0m cnn37_d256_k5 (Conv1D)       (None, 97, 256)           327936    
[2m[36m(pid=3707, ip=10.128.5.68)[0m _________________________________________________________________
[2m[36m(pid=3707, ip=10.128.5.68)[0m aca37 (LeakyReLU)            (None, 97, 256)           0         
[2m[36m(pid=3707, ip=10.128.5.68)[0m _________________________________________________________________
[2m[36m(pid=3707, ip=10.128.5.68)[0m cnn38_d256_k5 (Conv1D)       (None, 93, 256)           327936    
[2m[36m(pid=3707, ip=10.128.5.68)[0m _________________________________________________________________
[2m[36m(pid=3707, ip=10.128.5.68)[0m aca38 (LeakyReLU)            (None, 93, 256)           0         
[2m[36m(pid=3707, ip=10.128.5.68)[0m _________________________________________________________________
[2m[36m(pid=3707, ip=10.128.5.68)[0m cnn39_d256_k5 (Conv1D)       (None, 89, 256)           327936    
[2m[36m(pid=3707, ip=10.128.5.68)[0m _________________________________________________________________
[2m[36m(pid=3707, ip=10.128.5.68)[0m aca39 (LeakyReLU)            (None, 89, 256)           0         
[2m[36m(pid=3707, ip=10.128.5.68)[0m _________________________________________________________________
[2m[36m(pid=3707, ip=10.128.5.68)[0m cnn40_d256_k5 (Conv1D)       (None, 85, 256)           327936    
[2m[36m(pid=3707, ip=10.128.5.68)[0m _________________________________________________________________
[2m[36m(pid=3707, ip=10.128.5.68)[0m aca40 (LeakyReLU)            (None, 85, 256)           0         
[2m[36m(pid=3707, ip=10.128.5.68)[0m _________________________________________________________________
[2m[36m(pid=3707, ip=10.128.5.68)[0m cnn41_d256_k5 (Conv1D)       (None, 81, 256)           327936    
[2m[36m(pid=3707, ip=10.128.5.68)[0m _________________________________________________________________
[2m[36m(pid=3707, ip=10.128.5.68)[0m aca41 (LeakyReLU)            (None, 81, 256)           0         
[2m[36m(pid=3707, ip=10.128.5.68)[0m _________________________________________________________________
[2m[36m(pid=3707, ip=10.128.5.68)[0m cnn42_d256_k5 (Conv1D)       (None, 77, 256)           327936    
[2m[36m(pid=3707, ip=10.128.5.68)[0m _________________________________________________________________
[2m[36m(pid=3707, ip=10.128.5.68)[0m aca42 (LeakyReLU)            (None, 77, 256)           0         
[2m[36m(pid=3707, ip=10.128.5.68)[0m _________________________________________________________________
[2m[36m(pid=3707, ip=10.128.5.68)[0m pool_42 (MaxPooling1D)       (None, 38, 256)           0         
[2m[36m(pid=3707, ip=10.128.5.68)[0m _________________________________________________________________
[2m[36m(pid=3707, ip=10.128.5.68)[0m to_1d (Flatten)              (None, 9728)              0         
[2m[36m(pid=3707, ip=10.128.5.68)[0m _________________________________________________________________
[2m[36m(pid=3707, ip=10.128.5.68)[0m fdrop (Dropout)              (None, 9728)              0         
[2m[36m(pid=3707, ip=10.128.5.68)[0m _________________________________________________________________
[2m[36m(pid=3707, ip=10.128.5.68)[0m fc0 (Dense)                  (None, 512)               4981248   
[2m[36m(pid=3707, ip=10.128.5.68)[0m _________________________________________________________________
[2m[36m(pid=3707, ip=10.128.5.68)[0m acb0 (LeakyReLU)             (None, 512)               0         
[2m[36m(pid=3707, ip=10.128.5.68)[0m _________________________________________________________________
[2m[36m(pid=3707, ip=10.128.5.68)[0m drop0 (Dropout)              (None, 512)               0         
[2m[36m(pid=3707, ip=10.128.5.68)[0m _________________________________________________________________
[2m[36m(pid=3707, ip=10.128.5.68)[0m fc1 (Dense)                  (None, 496)               254448    
[2m[36m(pid=3707, ip=10.128.5.68)[0m _________________________________________________________________
[2m[36m(pid=3707, ip=10.128.5.68)[0m acb1 (LeakyReLU)             (None, 496)               0         
[2m[36m(pid=3707, ip=10.128.5.68)[0m _________________________________________________________________
[2m[36m(pid=3707, ip=10.128.5.68)[0m drop1 (Dropout)              (None, 496)               0         
[2m[36m(pid=3707, ip=10.128.5.68)[0m _________________________________________________________________
[2m[36m(pid=3707, ip=10.128.5.68)[0m fc2 (Dense)                  (None, 496)               246512    
[2m[36m(pid=3707, ip=10.128.5.68)[0m _________________________________________________________________
[2m[36m(pid=3707, ip=10.128.5.68)[0m acb2 (LeakyReLU)             (None, 496)               0         
[2m[36m(pid=3707, ip=10.128.5.68)[0m _________________________________________________________________
[2m[36m(pid=3707, ip=10.128.5.68)[0m drop2 (Dropout)              (None, 496)               0         
[2m[36m(pid=3707, ip=10.128.5.68)[0m _________________________________________________________________
[2m[36m(pid=3707, ip=10.128.5.68)[0m fc3 (Dense)                  (None, 248)               123256    
[2m[36m(pid=3707, ip=10.128.5.68)[0m _________________________________________________________________
[2m[36m(pid=3707, ip=10.128.5.68)[0m acb3 (LeakyReLU)             (None, 248)               0         
[2m[36m(pid=3707, ip=10.128.5.68)[0m _________________________________________________________________
[2m[36m(pid=3707, ip=10.128.5.68)[0m drop3 (Dropout)              (None, 248)               0         
[2m[36m(pid=3707, ip=10.128.5.68)[0m _________________________________________________________________
[2m[36m(pid=3707, ip=10.128.5.68)[0m fc4 (Dense)                  (None, 124)               30876     
[2m[36m(pid=3707, ip=10.128.5.68)[0m _________________________________________________________________
[2m[36m(pid=3707, ip=10.128.5.68)[0m acb4 (LeakyReLU)             (None, 124)               0         
[2m[36m(pid=3707, ip=10.128.5.68)[0m _________________________________________________________________
[2m[36m(pid=3707, ip=10.128.5.68)[0m drop4 (Dropout)              (None, 124)               0         
[2m[36m(pid=3707, ip=10.128.5.68)[0m _________________________________________________________________
[2m[36m(pid=3707, ip=10.128.5.68)[0m fc5 (Dense)                  (None, 124)               15500     
[2m[36m(pid=3707, ip=10.128.5.68)[0m _________________________________________________________________
[2m[36m(pid=3707, ip=10.128.5.68)[0m acb5 (LeakyReLU)             (None, 124)               0         
[2m[36m(pid=3707, ip=10.128.5.68)[0m _________________________________________________________________
[2m[36m(pid=3707, ip=10.128.5.68)[0m drop5 (Dropout)              (None, 124)               0         
[2m[36m(pid=3707, ip=10.128.5.68)[0m _________________________________________________________________
[2m[36m(pid=3707, ip=10.128.5.68)[0m out_tanh (Dense)             (None, 18)                2250      
[2m[36m(pid=3707, ip=10.128.5.68)[0m _________________________________________________________________
[2m[36m(pid=3707, ip=10.128.5.68)[0m scaleAmpl_1.2 (Lambda)       (None, 18)                0         
[2m[36m(pid=3707, ip=10.128.5.68)[0m =================================================================
[2m[36m(pid=3707, ip=10.128.5.68)[0m Total params: 15,476,022
[2m[36m(pid=3707, ip=10.128.5.68)[0m Trainable params: 15,476,000
[2m[36m(pid=3707, ip=10.128.5.68)[0m Non-trainable params: 22
[2m[36m(pid=3707, ip=10.128.5.68)[0m _________________________________________________________________
…
[2m[36m(pid=9479, ip=10.128.5.70)[0m Model: "model"
[2m[36m(pid=9479, ip=10.128.5.70)[0m _________________________________________________________________
[2m[36m(pid=9479, ip=10.128.5.70)[0m Layer (type)                 Output Shape              Param #   
[2m[36m(pid=9479, ip=10.128.5.70)[0m =================================================================
[2m[36m(pid=9479, ip=10.128.5.70)[0m trace_8000 (InputLayer)      [(None, 8000, 11)]        0         
[2m[36m(pid=9479, ip=10.128.5.70)[0m _________________________________________________________________
[2m[36m(pid=9479, ip=10.128.5.70)[0m inp_BN_cast (BatchNormalizat (None, 8000, 11)          44        
[2m[36m(pid=9479, ip=10.128.5.70)[0m _________________________________________________________________
[2m[36m(pid=9479, ip=10.128.5.70)[0m cnn1_d64_k8 (Conv1D)         (None, 7993, 64)          5696      
[2m[36m(pid=9479, ip=10.128.5.70)[0m _________________________________________________________________
[2m[36m(pid=9479, ip=10.128.5.70)[0m aca1 (LeakyReLU)             (None, 7993, 64)          0         
[2m[36m(pid=9479, ip=10.128.5.70)[0m _________________________________________________________________
[2m[36m(pid=9479, ip=10.128.5.70)[0m cnn2_d64_k8 (Conv1D)         (None, 7986, 64)          32832     
[2m[36m(pid=9479, ip=10.128.5.70)[0m _________________________________________________________________
[2m[36m(pid=9479, ip=10.128.5.70)[0m aca2 (LeakyReLU)             (None, 7986, 64)          0         
[2m[36m(pid=9479, ip=10.128.5.70)[0m _________________________________________________________________
[2m[36m(pid=9479, ip=10.128.5.70)[0m cnn3_d64_k8 (Conv1D)         (None, 7979, 64)          32832     
[2m[36m(pid=9479, ip=10.128.5.70)[0m _________________________________________________________________
[2m[36m(pid=9479, ip=10.128.5.70)[0m aca3 (LeakyReLU)             (None, 7979, 64)          0         
[2m[36m(pid=9479, ip=10.128.5.70)[0m _________________________________________________________________
[2m[36m(pid=9479, ip=10.128.5.70)[0m cnn4_d64_k8 (Conv1D)         (None, 7972, 64)          32832     
[2m[36m(pid=9479, ip=10.128.5.70)[0m _________________________________________________________________
[2m[36m(pid=9479, ip=10.128.5.70)[0m aca4 (LeakyReLU)             (None, 7972, 64)          0         
[2m[36m(pid=9479, ip=10.128.5.70)[0m _________________________________________________________________
[2m[36m(pid=9479, ip=10.128.5.70)[0m cnn5_d64_k8 (Conv1D)         (None, 7965, 64)          32832     
[2m[36m(pid=9479, ip=10.128.5.70)[0m _________________________________________________________________
[2m[36m(pid=9479, ip=10.128.5.70)[0m aca5 (LeakyReLU)             (None, 7965, 64)          0         
[2m[36m(pid=9479, ip=10.128.5.70)[0m _________________________________________________________________
[2m[36m(pid=9479, ip=10.128.5.70)[0m cnn6_d64_k8 (Conv1D)         (None, 7958, 64)          32832     
[2m[36m(pid=9479, ip=10.128.5.70)[0m _________________________________________________________________
[2m[36m(pid=9479, ip=10.128.5.70)[0m aca6 (LeakyReLU)             (None, 7958, 64)          0         
[2m[36m(pid=9479, ip=10.128.5.70)[0m _________________________________________________________________
[2m[36m(pid=9479, ip=10.128.5.70)[0m pool_6 (MaxPooling1D)        (None, 2652, 64)          0         
[2m[36m(pid=9479, ip=10.128.5.70)[0m _________________________________________________________________
[2m[36m(pid=9479, ip=10.128.5.70)[0m cnn7_d256_k8 (Conv1D)        (None, 2645, 256)         131328    
[2m[36m(pid=9479, ip=10.128.5.70)[0m _________________________________________________________________
[2m[36m(pid=9479, ip=10.128.5.70)[0m aca7 (LeakyReLU)             (None, 2645, 256)         0         
[2m[36m(pid=9479, ip=10.128.5.70)[0m _________________________________________________________________
[2m[36m(pid=9479, ip=10.128.5.70)[0m cnn8_d256_k8 (Conv1D)        (None, 2638, 256)         524544    
[2m[36m(pid=9479, ip=10.128.5.70)[0m _________________________________________________________________
[2m[36m(pid=9479, ip=10.128.5.70)[0m aca8 (LeakyReLU)             (None, 2638, 256)         0         
[2m[36m(pid=9479, ip=10.128.5.70)[0m _________________________________________________________________
[2m[36m(pid=9479, ip=10.128.5.70)[0m cnn9_d256_k8 (Conv1D)        (None, 2631, 256)         524544    
[2m[36m(pid=9479, ip=10.128.5.70)[0m _________________________________________________________________
[2m[36m(pid=9479, ip=10.128.5.70)[0m aca9 (LeakyReLU)             (None, 2631, 256)         0         
[2m[36m(pid=9479, ip=10.128.5.70)[0m _________________________________________________________________
[2m[36m(pid=9479, ip=10.128.5.70)[0m cnn10_d256_k8 (Conv1D)       (None, 2624, 256)         524544    
[2m[36m(pid=9479, ip=10.128.5.70)[0m _________________________________________________________________
[2m[36m(pid=9479, ip=10.128.5.70)[0m aca10 (LeakyReLU)            (None, 2624, 256)         0         
[2m[36m(pid=9479, ip=10.128.5.70)[0m _________________________________________________________________
[2m[36m(pid=9479, ip=10.128.5.70)[0m cnn11_d256_k8 (Conv1D)       (None, 2617, 256)         524544    
[2m[36m(pid=9479, ip=10.128.5.70)[0m _________________________________________________________________
[2m[36m(pid=9479, ip=10.128.5.70)[0m aca11 (LeakyReLU)            (None, 2617, 256)         0         
[2m[36m(pid=9479, ip=10.128.5.70)[0m _________________________________________________________________
[2m[36m(pid=9479, ip=10.128.5.70)[0m cnn12_d256_k8 (Conv1D)       (None, 2610, 256)         524544    
[2m[36m(pid=9479, ip=10.128.5.70)[0m _________________________________________________________________
[2m[36m(pid=9479, ip=10.128.5.70)[0m aca12 (LeakyReLU)            (None, 2610, 256)         0         
[2m[36m(pid=9479, ip=10.128.5.70)[0m _________________________________________________________________
[2m[36m(pid=9479, ip=10.128.5.70)[0m pool_12 (MaxPooling1D)       (None, 870, 256)          0         
[2m[36m(pid=9479, ip=10.128.5.70)[0m _________________________________________________________________
[2m[36m(pid=9479, ip=10.128.5.70)[0m cnn13_d256_k8 (Conv1D)       (None, 863, 256)          524544    
[2m[36m(pid=9479, ip=10.128.5.70)[0m _________________________________________________________________
[2m[36m(pid=9479, ip=10.128.5.70)[0m aca13 (LeakyReLU)            (None, 863, 256)          0         
[2m[36m(pid=9479, ip=10.128.5.70)[0m _________________________________________________________________
[2m[36m(pid=9479, ip=10.128.5.70)[0m cnn14_d256_k8 (Conv1D)       (None, 856, 256)          524544    
[2m[36m(pid=9479, ip=10.128.5.70)[0m _________________________________________________________________
[2m[36m(pid=9479, ip=10.128.5.70)[0m aca14 (LeakyReLU)            (None, 856, 256)          0         
[2m[36m(pid=9479, ip=10.128.5.70)[0m _________________________________________________________________
[2m[36m(pid=9479, ip=10.128.5.70)[0m cnn15_d256_k8 (Conv1D)       (None, 849, 256)          524544    
[2m[36m(pid=9479, ip=10.128.5.70)[0m _________________________________________________________________
[2m[36m(pid=9479, ip=10.128.5.70)[0m aca15 (LeakyReLU)            (None, 849, 256)          0         
[2m[36m(pid=9479, ip=10.128.5.70)[0m _________________________________________________________________
[2m[36m(pid=9479, ip=10.128.5.70)[0m cnn16_d256_k8 (Conv1D)       (None, 842, 256)          524544    
[2m[36m(pid=9479, ip=10.128.5.70)[0m _________________________________________________________________
[2m[36m(pid=9479, ip=10.128.5.70)[0m aca16 (LeakyReLU)            (None, 842, 256)          0         
[2m[36m(pid=9479, ip=10.128.5.70)[0m _________________________________________________________________
[2m[36m(pid=9479, ip=10.128.5.70)[0m cnn17_d256_k8 (Conv1D)       (None, 835, 256)          524544    
[2m[36m(pid=9479, ip=10.128.5.70)[0m _________________________________________________________________
[2m[36m(pid=9479, ip=10.128.5.70)[0m aca17 (LeakyReLU)            (None, 835, 256)          0         
[2m[36m(pid=9479, ip=10.128.5.70)[0m _________________________________________________________________
[2m[36m(pid=9479, ip=10.128.5.70)[0m cnn18_d256_k8 (Conv1D)       (None, 828, 256)          524544    
[2m[36m(pid=9479, ip=10.128.5.70)[0m _________________________________________________________________
[2m[36m(pid=9479, ip=10.128.5.70)[0m aca18 (LeakyReLU)            (None, 828, 256)          0         
[2m[36m(pid=9479, ip=10.128.5.70)[0m _________________________________________________________________
[2m[36m(pid=9479, ip=10.128.5.70)[0m pool_18 (MaxPooling1D)       (None, 276, 256)          0         
[2m[36m(pid=9479, ip=10.128.5.70)[0m _________________________________________________________________
[2m[36m(pid=9479, ip=10.128.5.70)[0m cnn19_d256_k8 (Conv1D)       (None, 269, 256)          524544    
[2m[36m(pid=9479, ip=10.128.5.70)[0m _________________________________________________________________
[2m[36m(pid=9479, ip=10.128.5.70)[0m aca19 (LeakyReLU)            (None, 269, 256)          0         
[2m[36m(pid=9479, ip=10.128.5.70)[0m _________________________________________________________________
[2m[36m(pid=9479, ip=10.128.5.70)[0m cnn20_d256_k8 (Conv1D)       (None, 262, 256)          524544    
[2m[36m(pid=9479, ip=10.128.5.70)[0m _________________________________________________________________
[2m[36m(pid=9479, ip=10.128.5.70)[0m aca20 (LeakyReLU)            (None, 262, 256)          0         
[2m[36m(pid=9479, ip=10.128.5.70)[0m _________________________________________________________________
[2m[36m(pid=9479, ip=10.128.5.70)[0m cnn21_d256_k8 (Conv1D)       (None, 255, 256)          524544    
[2m[36m(pid=9479, ip=10.128.5.70)[0m _________________________________________________________________
[2m[36m(pid=9479, ip=10.128.5.70)[0m aca21 (LeakyReLU)            (None, 255, 256)          0         
[2m[36m(pid=9479, ip=10.128.5.70)[0m _________________________________________________________________
[2m[36m(pid=9479, ip=10.128.5.70)[0m cnn22_d256_k8 (Conv1D)       (None, 248, 256)          524544    
[2m[36m(pid=9479, ip=10.128.5.70)[0m _________________________________________________________________
[2m[36m(pid=9479, ip=10.128.5.70)[0m aca22 (LeakyReLU)            (None, 248, 256)          0         
[2m[36m(pid=9479, ip=10.128.5.70)[0m _________________________________________________________________
[2m[36m(pid=9479, ip=10.128.5.70)[0m cnn23_d256_k8 (Conv1D)       (None, 241, 256)          524544    
[2m[36m(pid=9479, ip=10.128.5.70)[0m _________________________________________________________________
[2m[36m(pid=9479, ip=10.128.5.70)[0m aca23 (LeakyReLU)            (None, 241, 256)          0         
[2m[36m(pid=9479, ip=10.128.5.70)[0m _________________________________________________________________
[2m[36m(pid=9479, ip=10.128.5.70)[0m cnn24_d256_k8 (Conv1D)       (None, 234, 256)          524544    
[2m[36m(pid=9479, ip=10.128.5.70)[0m _________________________________________________________________
[2m[36m(pid=9479, ip=10.128.5.70)[0m aca24 (LeakyReLU)            (None, 234, 256)          0         
[2m[36m(pid=9479, ip=10.128.5.70)[0m _________________________________________________________________
[2m[36m(pid=9479, ip=10.128.5.70)[0m pool_24 (MaxPooling1D)       (None, 78, 256)           0         
[2m[36m(pid=9479, ip=10.128.5.70)[0m _________________________________________________________________
[2m[36m(pid=9479, ip=10.128.5.70)[0m cnn25_d256_k8 (Conv1D)       (None, 71, 256)           524544    
[2m[36m(pid=9479, ip=10.128.5.70)[0m _________________________________________________________________
[2m[36m(pid=9479, ip=10.128.5.70)[0m aca25 (LeakyReLU)            (None, 71, 256)           0         
[2m[36m(pid=9479, ip=10.128.5.70)[0m _________________________________________________________________
[2m[36m(pid=9479, ip=10.128.5.70)[0m cnn26_d256_k8 (Conv1D)       (None, 64, 256)           524544    
[2m[36m(pid=9479, ip=10.128.5.70)[0m _________________________________________________________________
[2m[36m(pid=9479, ip=10.128.5.70)[0m aca26 (LeakyReLU)            (None, 64, 256)           0         
[2m[36m(pid=9479, ip=10.128.5.70)[0m _________________________________________________________________
[2m[36m(pid=9479, ip=10.128.5.70)[0m cnn27_d256_k8 (Conv1D)       (None, 57, 256)           524544    
[2m[36m(pid=9479, ip=10.128.5.70)[0m _________________________________________________________________
[2m[36m(pid=9479, ip=10.128.5.70)[0m aca27 (LeakyReLU)            (None, 57, 256)           0         
[2m[36m(pid=9479, ip=10.128.5.70)[0m _________________________________________________________________
[2m[36m(pid=9479, ip=10.128.5.70)[0m cnn28_d256_k8 (Conv1D)       (None, 50, 256)           524544    
[2m[36m(pid=9479, ip=10.128.5.70)[0m _________________________________________________________________
[2m[36m(pid=9479, ip=10.128.5.70)[0m aca28 (LeakyReLU)            (None, 50, 256)           0         
[2m[36m(pid=9479, ip=10.128.5.70)[0m _________________________________________________________________
[2m[36m(pid=9479, ip=10.128.5.70)[0m cnn29_d256_k8 (Conv1D)       (None, 43, 256)           524544    
[2m[36m(pid=9479, ip=10.128.5.70)[0m _________________________________________________________________
[2m[36m(pid=9479, ip=10.128.5.70)[0m aca29 (LeakyReLU)            (None, 43, 256)           0         
[2m[36m(pid=9479, ip=10.128.5.70)[0m _________________________________________________________________
[2m[36m(pid=9479, ip=10.128.5.70)[0m cnn30_d256_k8 (Conv1D)       (None, 36, 256)           524544    
[2m[36m(pid=9479, ip=10.128.5.70)[0m _________________________________________________________________
[2m[36m(pid=9479, ip=10.128.5.70)[0m aca30 (LeakyReLU)            (None, 36, 256)           0         
[2m[36m(pid=9479, ip=10.128.5.70)[0m _________________________________________________________________
[2m[36m(pid=9479, ip=10.128.5.70)[0m pool_30 (MaxPooling1D)       (None, 12, 256)           0         
[2m[36m(pid=9479, ip=10.128.5.70)[0m _________________________________________________________________
[2m[36m(pid=9479, ip=10.128.5.70)[0m to_1d (Flatten)              (None, 3072)              0         
[2m[36m(pid=9479, ip=10.128.5.70)[0m _________________________________________________________________
[2m[36m(pid=9479, ip=10.128.5.70)[0m fdrop (Dropout)              (None, 3072)              0         
[2m[36m(pid=9479, ip=10.128.5.70)[0m _________________________________________________________________
[2m[36m(pid=9479, ip=10.128.5.70)[0m fc0 (Dense)                  (None, 512)               1573376   
[2m[36m(pid=9479, ip=10.128.5.70)[0m _________________________________________________________________
[2m[36m(pid=9479, ip=10.128.5.70)[0m acb0 (LeakyReLU)             (None, 512)               0         
[2m[36m(pid=9479, ip=10.128.5.70)[0m _________________________________________________________________
[2m[36m(pid=9479, ip=10.128.5.70)[0m drop0 (Dropout)              (None, 512)               0         
[2m[36m(pid=9479, ip=10.128.5.70)[0m _________________________________________________________________
[2m[36m(pid=9479, ip=10.128.5.70)[0m fc1 (Dense)                  (None, 496)               254448    
[2m[36m(pid=9479, ip=10.128.5.70)[0m _________________________________________________________________
[2m[36m(pid=9479, ip=10.128.5.70)[0m acb1 (LeakyReLU)             (None, 496)               0         
[2m[36m(pid=9479, ip=10.128.5.70)[0m _________________________________________________________________
[2m[36m(pid=9479, ip=10.128.5.70)[0m drop1 (Dropout)              (None, 496)               0         
[2m[36m(pid=9479, ip=10.128.5.70)[0m _________________________________________________________________
[2m[36m(pid=9479, ip=10.128.5.70)[0m fc2 (Dense)                  (None, 496)               246512    
[2m[36m(pid=9479, ip=10.128.5.70)[0m _________________________________________________________________
[2m[36m(pid=9479, ip=10.128.5.70)[0m acb2 (LeakyReLU)             (None, 496)               0         
[2m[36m(pid=9479, ip=10.128.5.70)[0m _________________________________________________________________
[2m[36m(pid=9479, ip=10.128.5.70)[0m drop2 (Dropout)              (None, 496)               0         
[2m[36m(pid=9479, ip=10.128.5.70)[0m _________________________________________________________________
[2m[36m(pid=9479, ip=10.128.5.70)[0m fc3 (Dense)                  (None, 124)               61628     
[2m[36m(pid=9479, ip=10.128.5.70)[0m _________________________________________________________________
[2m[36m(pid=9479, ip=10.128.5.70)[0m acb3 (LeakyReLU)             (None, 124)               0         
[2m[36m(pid=9479, ip=10.128.5.70)[0m _________________________________________________________________
[2m[36m(pid=9479, ip=10.128.5.70)[0m drop3 (Dropout)              (None, 124)               0         
[2m[36m(pid=9479, ip=10.128.5.70)[0m _________________________________________________________________
[2m[36m(pid=9479, ip=10.128.5.70)[0m fc4 (Dense)                  (None, 124)               15500     
[2m[36m(pid=9479, ip=10.128.5.70)[0m _________________________________________________________________
[2m[36m(pid=9479, ip=10.128.5.70)[0m acb4 (LeakyReLU)             (None, 124)               0         
[2m[36m(pid=9479, ip=10.128.5.70)[0m _________________________________________________________________
[2m[36m(pid=9479, ip=10.128.5.70)[0m drop4 (Dropout)              (None, 124)               0         
[2m[36m(pid=9479, ip=10.128.5.70)[0m _________________________________________________________________
[2m[36m(pid=9479, ip=10.128.5.70)[0m fc5 (Dense)                  (None, 124)               15500     
[2m[36m(pid=9479, ip=10.128.5.70)[0m _________________________________________________________________
[2m[36m(pid=9479, ip=10.128.5.70)[0m acb5 (LeakyReLU)             (None, 124)               0         
[2m[36m(pid=9479, ip=10.128.5.70)[0m _________________________________________________________________
[2m[36m(pid=9479, ip=10.128.5.70)[0m drop5 (Dropout)              (None, 124)               0         
[2m[36m(pid=9479, ip=10.128.5.70)[0m _________________________________________________________________
[2m[36m(pid=9479, ip=10.128.5.70)[0m out_tanh (Dense)             (None, 18)                2250      
[2m[36m(pid=9479, ip=10.128.5.70)[0m _________________________________________________________________
[2m[36m(pid=9479, ip=10.128.5.70)[0m scaleAmpl_1.2 (Lambda)       (None, 18)                0         
[2m[36m(pid=9479, ip=10.128.5.70)[0m =================================================================
[2m[36m(pid=9479, ip=10.128.5.70)[0m Total params: 14,534,954
[2m[36m(pid=9479, ip=10.128.5.70)[0m Trainable params: 14,534,932
[2m[36m(pid=9479, ip=10.128.5.70)[0m Non-trainable params: 22
[2m[36m(pid=9479, ip=10.128.5.70)[0m _________________________________________________________________
…
[2m[36m(pid=15276, ip=10.128.5.69)[0m _________________________________________________________________
[2m[36m(pid=15276, ip=10.128.5.69)[0m Layer (type)                 Output Shape              Param #   
[2m[36m(pid=15276, ip=10.128.5.69)[0m =================================================================
[2m[36m(pid=15276, ip=10.128.5.69)[0m trace_8000 (InputLayer)      [(None, 8000, 11)]        0         
[2m[36m(pid=15276, ip=10.128.5.69)[0m _________________________________________________________________
[2m[36m(pid=15276, ip=10.128.5.69)[0m inp_BN_cast (BatchNormalizat (None, 8000, 11)          44        
[2m[36m(pid=15276, ip=10.128.5.69)[0m _________________________________________________________________
[2m[36m(pid=15276, ip=10.128.5.69)[0m cnn1_d32_k7 (Conv1D)         (None, 7994, 32)          2496      
[2m[36m(pid=15276, ip=10.128.5.69)[0m _________________________________________________________________
[2m[36m(pid=15276, ip=10.128.5.69)[0m aca1 (LeakyReLU)             (None, 7994, 32)          0         
[2m[36m(pid=15276, ip=10.128.5.69)[0m _________________________________________________________________
[2m[36m(pid=15276, ip=10.128.5.69)[0m cnn2_d32_k7 (Conv1D)         (None, 7988, 32)          7200      
[2m[36m(pid=15276, ip=10.128.5.69)[0m _________________________________________________________________
[2m[36m(pid=15276, ip=10.128.5.69)[0m aca2 (LeakyReLU)             (None, 7988, 32)          0         
[2m[36m(pid=15276, ip=10.128.5.69)[0m _________________________________________________________________
[2m[36m(pid=15276, ip=10.128.5.69)[0m cnn3_d32_k7 (Conv1D)         (None, 7982, 32)          7200      
[2m[36m(pid=15276, ip=10.128.5.69)[0m _________________________________________________________________
[2m[36m(pid=15276, ip=10.128.5.69)[0m aca3 (LeakyReLU)             (None, 7982, 32)          0         
[2m[36m(pid=15276, ip=10.128.5.69)[0m _________________________________________________________________
[2m[36m(pid=15276, ip=10.128.5.69)[0m pool_3 (MaxPooling1D)        (None, 7982, 32)          0         
[2m[36m(pid=15276, ip=10.128.5.69)[0m _________________________________________________________________
[2m[36m(pid=15276, ip=10.128.5.69)[0m cnn4_d64_k7 (Conv1D)         (None, 7976, 64)          14400     
[2m[36m(pid=15276, ip=10.128.5.69)[0m _________________________________________________________________
[2m[36m(pid=15276, ip=10.128.5.69)[0m aca4 (LeakyReLU)             (None, 7976, 64)          0         
[2m[36m(pid=15276, ip=10.128.5.69)[0m _________________________________________________________________
[2m[36m(pid=15276, ip=10.128.5.69)[0m cnn5_d64_k7 (Conv1D)         (None, 7970, 64)          28736     
[2m[36m(pid=15276, ip=10.128.5.69)[0m _________________________________________________________________
[2m[36m(pid=15276, ip=10.128.5.69)[0m aca5 (LeakyReLU)             (None, 7970, 64)          0         
[2m[36m(pid=15276, ip=10.128.5.69)[0m _________________________________________________________________
[2m[36m(pid=15276, ip=10.128.5.69)[0m cnn6_d64_k7 (Conv1D)         (None, 7964, 64)          28736     
[2m[36m(pid=15276, ip=10.128.5.69)[0m _________________________________________________________________
[2m[36m(pid=15276, ip=10.128.5.69)[0m aca6 (LeakyReLU)             (None, 7964, 64)          0         
[2m[36m(pid=15276, ip=10.128.5.69)[0m _________________________________________________________________
[2m[36m(pid=15276, ip=10.128.5.69)[0m pool_6 (MaxPooling1D)        (None, 7964, 64)          0         
[2m[36m(pid=15276, ip=10.128.5.69)[0m _________________________________________________________________
[2m[36m(pid=15276, ip=10.128.5.69)[0m cnn7_d128_k7 (Conv1D)        (None, 7958, 128)         57472     
[2m[36m(pid=15276, ip=10.128.5.69)[0m _________________________________________________________________
[2m[36m(pid=15276, ip=10.128.5.69)[0m aca7 (LeakyReLU)             (None, 7958, 128)         0         
[2m[36m(pid=15276, ip=10.128.5.69)[0m _________________________________________________________________
[2m[36m(pid=15276, ip=10.128.5.69)[0m cnn8_d128_k7 (Conv1D)        (None, 7952, 128)         114816    
[2m[36m(pid=15276, ip=10.128.5.69)[0m _________________________________________________________________
[2m[36m(pid=15276, ip=10.128.5.69)[0m aca8 (LeakyReLU)             (None, 7952, 128)         0         
[2m[36m(pid=15276, ip=10.128.5.69)[0m _________________________________________________________________
[2m[36m(pid=15276, ip=10.128.5.69)[0m cnn9_d128_k7 (Conv1D)        (None, 7946, 128)         114816    
[2m[36m(pid=15276, ip=10.128.5.69)[0m _________________________________________________________________
[2m[36m(pid=15276, ip=10.128.5.69)[0m aca9 (LeakyReLU)             (None, 7946, 128)         0         
[2m[36m(pid=15276, ip=10.128.5.69)[0m _________________________________________________________________
[2m[36m(pid=15276, ip=10.128.5.69)[0m pool_9 (MaxPooling1D)        (None, 7946, 128)         0         
[2m[36m(pid=15276, ip=10.128.5.69)[0m _________________________________________________________________
[2m[36m(pid=15276, ip=10.128.5.69)[0m cnn10_d256_k7 (Conv1D)       (None, 7940, 256)         229632    
[2m[36m(pid=15276, ip=10.128.5.69)[0m _________________________________________________________________
[2m[36m(pid=15276, ip=10.128.5.69)[0m aca10 (LeakyReLU)            (None, 7940, 256)         0         
[2m[36m(pid=15276, ip=10.128.5.69)[0m _________________________________________________________________
[2m[36m(pid=15276, ip=10.128.5.69)[0m cnn11_d256_k7 (Conv1D)       (None, 7934, 256)         459008    
[2m[36m(pid=15276, ip=10.128.5.69)[0m _________________________________________________________________
[2m[36m(pid=15276, ip=10.128.5.69)[0m aca11 (LeakyReLU)            (None, 7934, 256)         0         
[2m[36m(pid=15276, ip=10.128.5.69)[0m _________________________________________________________________
[2m[36m(pid=15276, ip=10.128.5.69)[0m cnn12_d256_k7 (Conv1D)       (None, 7928, 256)         459008    
[2m[36m(pid=15276, ip=10.128.5.69)[0m _________________________________________________________________
[2m[36m(pid=15276, ip=10.128.5.69)[0m aca12 (LeakyReLU)            (None, 7928, 256)         0         
[2m[36m(pid=15276, ip=10.128.5.69)[0m _________________________________________________________________
[2m[36m(pid=15276, ip=10.128.5.69)[0m pool_12 (MaxPooling1D)       (None, 7928, 256)         0         
[2m[36m(pid=15276, ip=10.128.5.69)[0m _________________________________________________________________
[2m[36m(pid=15276, ip=10.128.5.69)[0m cnn13_d256_k7 (Conv1D)       (None, 7922, 256)         459008    
[2m[36m(pid=15276, ip=10.128.5.69)[0m _________________________________________________________________
[2m[36m(pid=15276, ip=10.128.5.69)[0m aca13 (LeakyReLU)            (None, 7922, 256)         0         
[2m[36m(pid=15276, ip=10.128.5.69)[0m _________________________________________________________________
[2m[36m(pid=15276, ip=10.128.5.69)[0m cnn14_d256_k7 (Conv1D)       (None, 7916, 256)         459008    
[2m[36m(pid=15276, ip=10.128.5.69)[0m _________________________________________________________________
[2m[36m(pid=15276, ip=10.128.5.69)[0m aca14 (LeakyReLU)            (None, 7916, 256)         0         
[2m[36m(pid=15276, ip=10.128.5.69)[0m _________________________________________________________________
[2m[36m(pid=15276, ip=10.128.5.69)[0m cnn15_d256_k7 (Conv1D)       (None, 7910, 256)         459008    
[2m[36m(pid=15276, ip=10.128.5.69)[0m _________________________________________________________________
[2m[36m(pid=15276, ip=10.128.5.69)[0m aca15 (LeakyReLU)            (None, 7910, 256)         0         
[2m[36m(pid=15276, ip=10.128.5.69)[0m _________________________________________________________________
[2m[36m(pid=15276, ip=10.128.5.69)[0m pool_15 (MaxPooling1D)       (None, 7910, 256)         0         
[2m[36m(pid=15276, ip=10.128.5.69)[0m _________________________________________________________________
[2m[36m(pid=15276, ip=10.128.5.69)[0m cnn16_d256_k7 (Conv1D)       (None, 7904, 256)         459008    
[2m[36m(pid=15276, ip=10.128.5.69)[0m _________________________________________________________________
[2m[36m(pid=15276, ip=10.128.5.69)[0m aca16 (LeakyReLU)            (None, 7904, 256)         0         
[2m[36m(pid=15276, ip=10.128.5.69)[0m _________________________________________________________________
[2m[36m(pid=15276, ip=10.128.5.69)[0m cnn17_d256_k7 (Conv1D)       (None, 7898, 256)         459008    
[2m[36m(pid=15276, ip=10.128.5.69)[0m _________________________________________________________________
[2m[36m(pid=15276, ip=10.128.5.69)[0m aca17 (LeakyReLU)            (None, 7898, 256)         0         
[2m[36m(pid=15276, ip=10.128.5.69)[0m _________________________________________________________________
[2m[36m(pid=15276, ip=10.128.5.69)[0m cnn18_d256_k7 (Conv1D)       (None, 7892, 256)         459008    
[2m[36m(pid=15276, ip=10.128.5.69)[0m _________________________________________________________________
[2m[36m(pid=15276, ip=10.128.5.69)[0m aca18 (LeakyReLU)            (None, 7892, 256)         0         
[2m[36m(pid=15276, ip=10.128.5.69)[0m _________________________________________________________________
[2m[36m(pid=15276, ip=10.128.5.69)[0m pool_18 (MaxPooling1D)       (None, 7892, 256)         0         
[2m[36m(pid=15276, ip=10.128.5.69)[0m _________________________________________________________________
[2m[36m(pid=15276, ip=10.128.5.69)[0m to_1d (Flatten)              (None, 2020352)           0         
[2m[36m(pid=15276, ip=10.128.5.69)[0m _________________________________________________________________
[2m[36m(pid=15276, ip=10.128.5.69)[0m fdrop (Dropout)              (None, 2020352)           0         
[2m[36m(pid=15276, ip=10.128.5.69)[0m _________________________________________________________________
[2m[36m(pid=15276, ip=10.128.5.69)[0m fc0 (Dense)                  (None, 124)               250523772 
[2m[36m(pid=15276, ip=10.128.5.69)[0m _________________________________________________________________
[2m[36m(pid=15276, ip=10.128.5.69)[0m acb0 (LeakyReLU)             (None, 124)               0         
[2m[36m(pid=15276, ip=10.128.5.69)[0m _________________________________________________________________
[2m[36m(pid=15276, ip=10.128.5.69)[0m drop0 (Dropout)              (None, 124)               0         
[2m[36m(pid=15276, ip=10.128.5.69)[0m _________________________________________________________________
[2m[36m(pid=15276, ip=10.128.5.69)[0m fc1 (Dense)                  (None, 124)               15500     
[2m[36m(pid=15276, ip=10.128.5.69)[0m _________________________________________________________________
[2m[36m(pid=15276, ip=10.128.5.69)[0m acb1 (LeakyReLU)             (None, 124)               0         
[2m[36m(pid=15276, ip=10.128.5.69)[0m _________________________________________________________________
[2m[36m(pid=15276, ip=10.128.5.69)[0m drop1 (Dropout)              (None, 124)               0         
[2m[36m(pid=15276, ip=10.128.5.69)[0m _________________________________________________________________
[2m[36m(pid=15276, ip=10.128.5.69)[0m out_tanh (Dense)             (None, 18)                2250      
[2m[36m(pid=15276, ip=10.128.5.69)[0m _________________________________________________________________
[2m[36m(pid=15276, ip=10.128.5.69)[0m scaleAmpl_1.2 (Lambda)       (None, 18)                0         
[2m[36m(pid=15276, ip=10.128.5.69)[0m =================================================================
[2m[36m(pid=15276, ip=10.128.5.69)[0m Total params: 254,819,134
[2m[36m(pid=15276, ip=10.128.5.69)[0m Trainable params: 254,819,112
[2m[36m(pid=15276, ip=10.128.5.69)[0m Non-trainable params: 22
[2m[36m(pid=15276, ip=10.128.5.69)[0m _________________________________________________________________
…
[2m[36m(pid=15277, ip=10.128.5.69)[0m _________________________________________________________________
[2m[36m(pid=15277, ip=10.128.5.69)[0m Layer (type)                 Output Shape              Param #   
[2m[36m(pid=15277, ip=10.128.5.69)[0m =================================================================
[2m[36m(pid=15277, ip=10.128.5.69)[0m trace_8000 (InputLayer)      [(None, 8000, 11)]        0         
[2m[36m(pid=15277, ip=10.128.5.69)[0m _________________________________________________________________
[2m[36m(pid=15277, ip=10.128.5.69)[0m inp_BN_cast (BatchNormalizat (None, 8000, 11)          44        
[2m[36m(pid=15277, ip=10.128.5.69)[0m _________________________________________________________________
[2m[36m(pid=15277, ip=10.128.5.69)[0m cnn1_d16_k6 (Conv1D)         (None, 7995, 16)          1072      
[2m[36m(pid=15277, ip=10.128.5.69)[0m _________________________________________________________________
[2m[36m(pid=15277, ip=10.128.5.69)[0m aca1 (LeakyReLU)             (None, 7995, 16)          0         
[2m[36m(pid=15277, ip=10.128.5.69)[0m _________________________________________________________________
[2m[36m(pid=15277, ip=10.128.5.69)[0m cnn2_d16_k6 (Conv1D)         (None, 7990, 16)          1552      
[2m[36m(pid=15277, ip=10.128.5.69)[0m _________________________________________________________________
[2m[36m(pid=15277, ip=10.128.5.69)[0m aca2 (LeakyReLU)             (None, 7990, 16)          0         
[2m[36m(pid=15277, ip=10.128.5.69)[0m _________________________________________________________________
[2m[36m(pid=15277, ip=10.128.5.69)[0m cnn3_d16_k6 (Conv1D)         (None, 7985, 16)          1552      
[2m[36m(pid=15277, ip=10.128.5.69)[0m _________________________________________________________________
[2m[36m(pid=15277, ip=10.128.5.69)[0m aca3 (LeakyReLU)             (None, 7985, 16)          0         
[2m[36m(pid=15277, ip=10.128.5.69)[0m _________________________________________________________________
[2m[36m(pid=15277, ip=10.128.5.69)[0m pool_3 (MaxPooling1D)        (None, 7985, 16)          0         
[2m[36m(pid=15277, ip=10.128.5.69)[0m _________________________________________________________________
[2m[36m(pid=15277, ip=10.128.5.69)[0m cnn4_d64_k6 (Conv1D)         (None, 7980, 64)          6208      
[2m[36m(pid=15277, ip=10.128.5.69)[0m _________________________________________________________________
[2m[36m(pid=15277, ip=10.128.5.69)[0m aca4 (LeakyReLU)             (None, 7980, 64)          0         
[2m[36m(pid=15277, ip=10.128.5.69)[0m _________________________________________________________________
[2m[36m(pid=15277, ip=10.128.5.69)[0m cnn5_d64_k6 (Conv1D)         (None, 7975, 64)          24640     
[2m[36m(pid=15277, ip=10.128.5.69)[0m _________________________________________________________________
[2m[36m(pid=15277, ip=10.128.5.69)[0m aca5 (LeakyReLU)             (None, 7975, 64)          0         
[2m[36m(pid=15277, ip=10.128.5.69)[0m _________________________________________________________________
[2m[36m(pid=15277, ip=10.128.5.69)[0m cnn6_d64_k6 (Conv1D)         (None, 7970, 64)          24640     
[2m[36m(pid=15277, ip=10.128.5.69)[0m _________________________________________________________________
[2m[36m(pid=15277, ip=10.128.5.69)[0m aca6 (LeakyReLU)             (None, 7970, 64)          0         
[2m[36m(pid=15277, ip=10.128.5.69)[0m _________________________________________________________________
[2m[36m(pid=15277, ip=10.128.5.69)[0m pool_6 (MaxPooling1D)        (None, 7970, 64)          0         
[2m[36m(pid=15277, ip=10.128.5.69)[0m _________________________________________________________________
[2m[36m(pid=15277, ip=10.128.5.69)[0m cnn7_d128_k6 (Conv1D)        (None, 7965, 128)         49280     
[2m[36m(pid=15277, ip=10.128.5.69)[0m _________________________________________________________________
[2m[36m(pid=15277, ip=10.128.5.69)[0m aca7 (LeakyReLU)             (None, 7965, 128)         0         
[2m[36m(pid=15277, ip=10.128.5.69)[0m _________________________________________________________________
[2m[36m(pid=15277, ip=10.128.5.69)[0m cnn8_d128_k6 (Conv1D)        (None, 7960, 128)         98432     
[2m[36m(pid=15277, ip=10.128.5.69)[0m _________________________________________________________________
[2m[36m(pid=15277, ip=10.128.5.69)[0m aca8 (LeakyReLU)             (None, 7960, 128)         0         
[2m[36m(pid=15277, ip=10.128.5.69)[0m _________________________________________________________________
[2m[36m(pid=15277, ip=10.128.5.69)[0m cnn9_d128_k6 (Conv1D)        (None, 7955, 128)         98432     
[2m[36m(pid=15277, ip=10.128.5.69)[0m _________________________________________________________________
[2m[36m(pid=15277, ip=10.128.5.69)[0m aca9 (LeakyReLU)             (None, 7955, 128)         0         
[2m[36m(pid=15277, ip=10.128.5.69)[0m _________________________________________________________________
[2m[36m(pid=15277, ip=10.128.5.69)[0m pool_9 (MaxPooling1D)        (None, 7955, 128)         0         
[2m[36m(pid=15277, ip=10.128.5.69)[0m _________________________________________________________________
[2m[36m(pid=15277, ip=10.128.5.69)[0m cnn10_d128_k6 (Conv1D)       (None, 7950, 128)         98432     
[2m[36m(pid=15277, ip=10.128.5.69)[0m _________________________________________________________________
[2m[36m(pid=15277, ip=10.128.5.69)[0m aca10 (LeakyReLU)            (None, 7950, 128)         0         
[2m[36m(pid=15277, ip=10.128.5.69)[0m _________________________________________________________________
[2m[36m(pid=15277, ip=10.128.5.69)[0m cnn11_d128_k6 (Conv1D)       (None, 7945, 128)         98432     
[2m[36m(pid=15277, ip=10.128.5.69)[0m _________________________________________________________________
[2m[36m(pid=15277, ip=10.128.5.69)[0m aca11 (LeakyReLU)            (None, 7945, 128)         0         
[2m[36m(pid=15277, ip=10.128.5.69)[0m _________________________________________________________________
[2m[36m(pid=15277, ip=10.128.5.69)[0m cnn12_d128_k6 (Conv1D)       (None, 7940, 128)         98432     
[2m[36m(pid=15277, ip=10.128.5.69)[0m _________________________________________________________________
[2m[36m(pid=15277, ip=10.128.5.69)[0m aca12 (LeakyReLU)            (None, 7940, 128)         0         
[2m[36m(pid=15277, ip=10.128.5.69)[0m _________________________________________________________________
[2m[36m(pid=15277, ip=10.128.5.69)[0m pool_12 (MaxPooling1D)       (None, 7940, 128)         0         
[2m[36m(pid=15277, ip=10.128.5.69)[0m _________________________________________________________________
[2m[36m(pid=15277, ip=10.128.5.69)[0m cnn13_d256_k6 (Conv1D)       (None, 7935, 256)         196864    
[2m[36m(pid=15277, ip=10.128.5.69)[0m _________________________________________________________________
[2m[36m(pid=15277, ip=10.128.5.69)[0m aca13 (LeakyReLU)            (None, 7935, 256)         0         
[2m[36m(pid=15277, ip=10.128.5.69)[0m _________________________________________________________________
[2m[36m(pid=15277, ip=10.128.5.69)[0m cnn14_d256_k6 (Conv1D)       (None, 7930, 256)         393472    
[2m[36m(pid=15277, ip=10.128.5.69)[0m _________________________________________________________________
[2m[36m(pid=15277, ip=10.128.5.69)[0m aca14 (LeakyReLU)            (None, 7930, 256)         0         
[2m[36m(pid=15277, ip=10.128.5.69)[0m _________________________________________________________________
[2m[36m(pid=15277, ip=10.128.5.69)[0m cnn15_d256_k6 (Conv1D)       (None, 7925, 256)         393472    
[2m[36m(pid=15277, ip=10.128.5.69)[0m _________________________________________________________________
[2m[36m(pid=15277, ip=10.128.5.69)[0m aca15 (LeakyReLU)            (None, 7925, 256)         0         
[2m[36m(pid=15277, ip=10.128.5.69)[0m _________________________________________________________________
[2m[36m(pid=15277, ip=10.128.5.69)[0m pool_15 (MaxPooling1D)       (None, 7925, 256)         0         
[2m[36m(pid=15277, ip=10.128.5.69)[0m _________________________________________________________________
[2m[36m(pid=15277, ip=10.128.5.69)[0m cnn16_d256_k6 (Conv1D)       (None, 7920, 256)         393472    
[2m[36m(pid=15277, ip=10.128.5.69)[0m _________________________________________________________________
[2m[36m(pid=15277, ip=10.128.5.69)[0m aca16 (LeakyReLU)            (None, 7920, 256)         0         
[2m[36m(pid=15277, ip=10.128.5.69)[0m _________________________________________________________________
[2m[36m(pid=15277, ip=10.128.5.69)[0m cnn17_d256_k6 (Conv1D)       (None, 7915, 256)         393472    
…
[2m[36m(pid=9482, ip=10.128.5.70)[0m cnn15_d128_k9 (Conv1D)       (None, 7880, 128)         147584    
[2m[36m(pid=9482, ip=10.128.5.70)[0m _________________________________________________________________
[2m[36m(pid=9482, ip=10.128.5.70)[0m aca15 (LeakyReLU)            (None, 7880, 128)         0         
[2m[36m(pid=9482, ip=10.128.5.70)[0m _________________________________________________________________
[2m[36m(pid=9482, ip=10.128.5.70)[0m cnn16_d128_k9 (Conv1D)       (None, 7872, 128)         147584    
[2m[36m(pid=9482, ip=10.128.5.70)[0m _________________________________________________________________
[2m[36m(pid=9482, ip=10.128.5.70)[0m aca16 (LeakyReLU)            (None, 7872, 128)         0         
[2m[36m(pid=9482, ip=10.128.5.70)[0m _________________________________________________________________
[2m[36m(pid=9482, ip=10.128.5.70)[0m pool_16 (MaxPooling1D)       (None, 7872, 128)         0         
[2m[36m(pid=9482, ip=10.128.5.70)[0m _________________________________________________________________
[2m[36m(pid=9482, ip=10.128.5.70)[0m cnn17_d128_k9 (Conv1D)       (None, 7864, 128)         147584    
[2m[36m(pid=9482, ip=10.128.5.70)[0m _________________________________________________________________
[2m[36m(pid=9482, ip=10.128.5.70)[0m aca17 (LeakyReLU)            (None, 7864, 128)         0         
[2m[36m(pid=9482, ip=10.128.5.70)[0m _________________________________________________________________
[2m[36m(pid=9482, ip=10.128.5.70)[0m cnn18_d128_k9 (Conv1D)       (None, 7856, 128)         147584    
[2m[36m(pid=9482, ip=10.128.5.70)[0m _________________________________________________________________
[2m[36m(pid=9482, ip=10.128.5.70)[0m aca18 (LeakyReLU)            (None, 7856, 128)         0         
[2m[36m(pid=9482, ip=10.128.5.70)[0m _________________________________________________________________
[2m[36m(pid=9482, ip=10.128.5.70)[0m cnn19_d128_k9 (Conv1D)       (None, 7848, 128)         147584    
[2m[36m(pid=9482, ip=10.128.5.70)[0m _________________________________________________________________
[2m[36m(pid=9482, ip=10.128.5.70)[0m aca19 (LeakyReLU)            (None, 7848, 128)         0         
[2m[36m(pid=9482, ip=10.128.5.70)[0m _________________________________________________________________
[2m[36m(pid=9482, ip=10.128.5.70)[0m cnn20_d128_k9 (Conv1D)       (None, 7840, 128)         147584    
[2m[36m(pid=9482, ip=10.128.5.70)[0m _________________________________________________________________
[2m[36m(pid=9482, ip=10.128.5.70)[0m aca20 (LeakyReLU)            (None, 7840, 128)         0         
[2m[36m(pid=9482, ip=10.128.5.70)[0m _________________________________________________________________
[2m[36m(pid=9482, ip=10.128.5.70)[0m pool_20 (MaxPooling1D)       (None, 7840, 128)         0         
[2m[36m(pid=9482, ip=10.128.5.70)[0m _________________________________________________________________
[2m[36m(pid=9482, ip=10.128.5.70)[0m cnn21_d256_k9 (Conv1D)       (None, 7832, 256)         295168    
[2m[36m(pid=9482, ip=10.128.5.70)[0m _________________________________________________________________
[2m[36m(pid=9482, ip=10.128.5.70)[0m aca21 (LeakyReLU)            (None, 7832, 256)         0         
[2m[36m(pid=9482, ip=10.128.5.70)[0m _________________________________________________________________
[2m[36m(pid=9482, ip=10.128.5.70)[0m cnn22_d256_k9 (Conv1D)       (None, 7824, 256)         590080    
[2m[36m(pid=9482, ip=10.128.5.70)[0m _________________________________________________________________
[2m[36m(pid=9482, ip=10.128.5.70)[0m aca22 (LeakyReLU)            (None, 7824, 256)         0         
[2m[36m(pid=9482, ip=10.128.5.70)[0m _________________________________________________________________
[2m[36m(pid=9482, ip=10.128.5.70)[0m cnn23_d256_k9 (Conv1D)       (None, 7816, 256)         590080    
[2m[36m(pid=9482, ip=10.128.5.70)[0m _________________________________________________________________
[2m[36m(pid=9482, ip=10.128.5.70)[0m aca23 (LeakyReLU)            (None, 7816, 256)         0         
[2m[36m(pid=9482, ip=10.128.5.70)[0m _________________________________________________________________
[2m[36m(pid=9482, ip=10.128.5.70)[0m cnn24_d256_k9 (Conv1D)       (None, 7808, 256)         590080    
[2m[36m(pid=9482, ip=10.128.5.70)[0m _________________________________________________________________
[2m[36m(pid=9482, ip=10.128.5.70)[0m aca24 (LeakyReLU)            (None, 7808, 256)         0         
[2m[36m(pid=9482, ip=10.128.5.70)[0m _________________________________________________________________
[2m[36m(pid=9482, ip=10.128.5.70)[0m pool_24 (MaxPooling1D)       (None, 7808, 256)         0         
[2m[36m(pid=9482, ip=10.128.5.70)[0m _________________________________________________________________
[2m[36m(pid=9482, ip=10.128.5.70)[0m cnn25_d256_k9 (Conv1D)       (None, 7800, 256)         590080    
[2m[36m(pid=9482, ip=10.128.5.70)[0m _________________________________________________________________
[2m[36m(pid=9482, ip=10.128.5.70)[0m aca25 (LeakyReLU)            (None, 7800, 256)         0         
[2m[36m(pid=9482, ip=10.128.5.70)[0m _________________________________________________________________
[2m[36m(pid=9482, ip=10.128.5.70)[0m cnn26_d256_k9 (Conv1D)       (None, 7792, 256)         590080    
[2m[36m(pid=9482, ip=10.128.5.70)[0m _________________________________________________________________
[2m[36m(pid=9482, ip=10.128.5.70)[0m aca26 (LeakyReLU)            (None, 7792, 256)         0         
[2m[36m(pid=9482, ip=10.128.5.70)[0m _________________________________________________________________
[2m[36m(pid=9482, ip=10.128.5.70)[0m cnn27_d256_k9 (Conv1D)       (None, 7784, 256)         590080    
[2m[36m(pid=9482, ip=10.128.5.70)[0m _________________________________________________________________
[2m[36m(pid=9482, ip=10.128.5.70)[0m aca27 (LeakyReLU)            (None, 7784, 256)         0         
[2m[36m(pid=9482, ip=10.128.5.70)[0m _________________________________________________________________
[2m[36m(pid=9482, ip=10.128.5.70)[0m cnn28_d256_k9 (Conv1D)       (None, 7776, 256)         590080    
[2m[36m(pid=9482, ip=10.128.5.70)[0m _________________________________________________________________
[2m[36m(pid=9482, ip=10.128.5.70)[0m aca28 (LeakyReLU)            (None, 7776, 256)         0         
[2m[36m(pid=9482, ip=10.128.5.70)[0m _________________________________________________________________
[2m[36m(pid=9482, ip=10.128.5.70)[0m pool_28 (MaxPooling1D)       (None, 7776, 256)         0         
[2m[36m(pid=9482, ip=10.128.5.70)[0m _________________________________________________________________
[2m[36m(pid=9482, ip=10.128.5.70)[0m to_1d (Flatten)              (None, 1990656)           0         
[2m[36m(pid=9482, ip=10.128.5.70)[0m _________________________________________________________________
[2m[36m(pid=9482, ip=10.128.5.70)[0m fdrop (Dropout)              (None, 1990656)           0         
[2m[36m(pid=9482, ip=10.128.5.70)[0m _________________________________________________________________
[2m[36m(pid=9482, ip=10.128.5.70)[0m fc0 (Dense)                  (None, 512)               1019216384
[2m[36m(pid=9482, ip=10.128.5.70)[0m _________________________________________________________________
[2m[36m(pid=9482, ip=10.128.5.70)[0m acb0 (LeakyReLU)             (None, 512)               0         
[2m[36m(pid=9482, ip=10.128.5.70)[0m _________________________________________________________________
[2m[36m(pid=9482, ip=10.128.5.70)[0m drop0 (Dropout)              (None, 512)               0         
[2m[36m(pid=9482, ip=10.128.5.70)[0m _________________________________________________________________
[2m[36m(pid=9482, ip=10.128.5.70)[0m fc1 (Dense)                  (None, 512)               262656    
[2m[36m(pid=9482, ip=10.128.5.70)[0m _________________________________________________________________
[2m[36m(pid=9482, ip=10.128.5.70)[0m acb1 (LeakyReLU)             (None, 512)               0         
[2m[36m(pid=9482, ip=10.128.5.70)[0m _________________________________________________________________
[2m[36m(pid=9482, ip=10.128.5.70)[0m drop1 (Dropout)              (None, 512)               0         
[2m[36m(pid=9482, ip=10.128.5.70)[0m _________________________________________________________________
[2m[36m(pid=9482, ip=10.128.5.70)[0m fc2 (Dense)                  (None, 496)               254448    
[2m[36m(pid=9482, ip=10.128.5.70)[0m _________________________________________________________________
[2m[36m(pid=9482, ip=10.128.5.70)[0m acb2 (LeakyReLU)             (None, 496)               0         
[2m[36m(pid=9482, ip=10.128.5.70)[0m _________________________________________________________________
[2m[36m(pid=9482, ip=10.128.5.70)[0m drop2 (Dropout)              (None, 496)               0         
[2m[36m(pid=9482, ip=10.128.5.70)[0m _________________________________________________________________
[2m[36m(pid=9482, ip=10.128.5.70)[0m fc3 (Dense)                  (None, 496)               246512    
[2m[36m(pid=9482, ip=10.128.5.70)[0m _________________________________________________________________
[2m[36m(pid=9482, ip=10.128.5.70)[0m acb3 (LeakyReLU)             (None, 496)               0         
[2m[36m(pid=9482, ip=10.128.5.70)[0m _________________________________________________________________
[2m[36m(pid=9482, ip=10.128.5.70)[0m drop3 (Dropout)              (None, 496)               0         
[2m[36m(pid=9482, ip=10.128.5.70)[0m _________________________________________________________________
[2m[36m(pid=9482, ip=10.128.5.70)[0m fc4 (Dense)                  (None, 496)               246512    
[2m[36m(pid=9482, ip=10.128.5.70)[0m _________________________________________________________________
[2m[36m(pid=9482, ip=10.128.5.70)[0m acb4 (LeakyReLU)             (None, 496)               0         
[2m[36m(pid=9482, ip=10.128.5.70)[0m _________________________________________________________________
[2m[36m(pid=9482, ip=10.128.5.70)[0m drop4 (Dropout)              (None, 496)               0         
[2m[36m(pid=9482, ip=10.128.5.70)[0m _________________________________________________________________
[2m[36m(pid=9482, ip=10.128.5.70)[0m fc5 (Dense)                  (None, 496)               246512    
[2m[36m(pid=9482, ip=10.128.5.70)[0m _________________________________________________________________
[2m[36m(pid=9482, ip=10.128.5.70)[0m acb5 (LeakyReLU)             (None, 496)               0         
[2m[36m(pid=9482, ip=10.128.5.70)[0m _________________________________________________________________
[2m[36m(pid=9482, ip=10.128.5.70)[0m drop5 (Dropout)              (None, 496)               0         
[2m[36m(pid=9482, ip=10.128.5.70)[0m _________________________________________________________________
[2m[36m(pid=9482, ip=10.128.5.70)[0m out_tanh (Dense)             (None, 18)                8946      
[2m[36m(pid=9482, ip=10.128.5.70)[0m _________________________________________________________________
[2m[36m(pid=9482, ip=10.128.5.70)[0m scaleAmpl_1.2 (Lambda)       (None, 18)                0         
[2m[36m(pid=9482, ip=10.128.5.70)[0m =================================================================
[2m[36m(pid=9482, ip=10.128.5.70)[0m Total params: 1,026,020,886
[2m[36m(pid=9482, ip=10.128.5.70)[0m Trainable params: 1,026,020,864
[2m[36m(pid=9482, ip=10.128.5.70)[0m Non-trainable params: 22
[2m[36m(pid=9482, ip=10.128.5.70)[0m _________________________________________________________________
…
| Trial name                    | status   | loc              |   batch_size | conv_filter                       |   conv_kernel |   conv_repeat |   dropFrac | fc_dims                        | lossName   | myID           | optimizer                 |   pool_len |   reduceLR_factor |   iter |   total time (s) |   val_loss |
|-------------------------------+----------+------------------+--------------+-----------------------------------+---------------+---------------+------------+--------------------------------+------------+----------------+---------------------------+------------+-------------------+--------+------------------+------------|
| training_function_6f65d_00000 | RUNNING  |                  |           32 | [64, 128, 256, 256, 256]          |             6 |             7 |       0.1  | [62, 31, 31]                   | mae        | id145572947346 | ['nadam', 0.001, 1.1e-07] |          1 |         0.0980078 |        |                  |            |
| training_function_6f65d_00001 | RUNNING  |                  |           64 | [32, 128, 256]                    |             4 |             7 |       0.02 | [496, 496, 248, 62]            | mse        | id174567675750 | ['adam', 0.001, 1.1e-07]  |          3 |         0.172305  |        |                  |            |
| training_function_6f65d_00002 | RUNNING  | 10.128.5.71:8900 |           32 | [8, 8, 16]                        |             3 |             9 |       0.02 | [512, 512, 496, 496, 248]      | mse        | id133514865559 | ['adam', 0.001, 1.1e-07]  |          2 |         0.27324   |      1 |          19.5374 |   0.276962 |
| training_function_6f65d_00003 | RUNNING  |                  |           32 | [64, 256, 256, 256, 256]          |             8 |             6 |       0.02 | [512, 496, 496, 124, 124, 124] | mae        | id180408307445 | ['nadam', 0.001, 1.1e-07] |          3 |         0.460756  |        |                  |            |
| training_function_6f65d_00004 | RUNNING  |                  |           64 | [8, 16, 32, 128, 128, 256, 256]   |             9 |             4 |       0.05 | [512, 512, 496, 496, 496, 496] | mae        | id168376834571 | ['adam', 0.001, 1.1e-07]  |          1 |         0.113504  |        |                  |            |
| training_function_6f65d_00005 | RUNNING  |                  |           32 | [16, 16, 64, 128, 256, 256, 256]  |             4 |             7 |       0.1  | [512, 512, 496, 124, 31]       | mae        | id184762249332 | ['nadam', 0.001, 1.1e-07] |          2 |         0.29407   |        |                  |            |
| training_function_6f65d_00006 | RUNNING  |                  |           64 | [64, 64, 256, 256, 256, 256, 256] |             5 |             6 |       0.1  | [512, 496, 496, 248, 124, 124] | mae        | id138430740056 | ['adam', 0.001, 1.1e-07]  |          2 |         0.387176  |        |                  |            |
| training_function_6f65d_00007 | RUNNING  |                  |          128 | [16, 64, 128, 128, 256, 256, 256] |             6 |             3 |       0.1  | [248, 248]                     | mae        | id156001411337 | ['nadam', 0.001, 1.1e-07] |          1 |         0.265053  |        |                  |            |
| training_function_6f65d_00008 | RUNNING  |                  |           32 | [128, 256, 256]                   |             4 |             3 |       0.05 | [512, 496]                     | mse        | id144105194345 | ['nadam', 0.001, 1.1e-07] |          2 |         0.0972746 |        |                  |            |
| training_function_6f65d_00009 | RUNNING  |                  |           32 | [32, 64, 128, 256, 256, 256]      |             7 |             3 |       0.01 | [124, 124]                     | mse        | id183099367275 | ['adam', 0.001, 1.1e-07]  |          1 |         0.0839728 |        |                  |            |
+-------------------------------+----------+------------------+--------------+-----------------------------------+---------------+---------------+------------+--------------------------------+------------+----------------+---------------------------+------------+-------------------+--------+------------------+------------+
…
| Trial name                    | status     | loc               |   batch_size | conv_filter                       |   conv_kernel |   conv_repeat |   dropFrac | fc_dims                        | lossName   | myID           | optimizer                 |   pool_len |   reduceLR_factor |   iter |   total time (s) |   val_loss |
|-------------------------------+------------+-------------------+--------------+-----------------------------------+---------------+---------------+------------+--------------------------------+------------+----------------+---------------------------+------------+-------------------+--------+------------------+------------|
| training_function_6f65d_00000 | RUNNING    |                   |           32 | [64, 128, 256, 256, 256]          |             6 |             7 |       0.1  | [62, 31, 31]                   | mae        | id145572947346 | ['nadam', 0.001, 1.1e-07] |          1 |         0.0980078 |        |                  |            |
| training_function_6f65d_00001 | RUNNING    | 10.128.5.67:12082 |           64 | [32, 128, 256]                    |             4 |             7 |       0.02 | [496, 496, 248, 62]            | mse        | id174567675750 | ['adam', 0.001, 1.1e-07]  |          3 |         0.172305  |      3 |          144.402 |   0.288694 |
| training_function_6f65d_00003 | RUNNING    | 10.128.5.70:9479  |           32 | [64, 256, 256, 256, 256]          |             8 |             6 |       0.02 | [512, 496, 496, 124, 124, 124] | mae        | id180408307445 | ['nadam', 0.001, 1.1e-07] |          3 |         0.460756  |      2 |          167.054 |   1.01265  |
| training_function_6f65d_00004 | RUNNING    |                   |           64 | [8, 16, 32, 128, 128, 256, 256]   |             9 |             4 |       0.05 | [512, 512, 496, 496, 496, 496] | mae        | id168376834571 | ['adam', 0.001, 1.1e-07]  |          1 |         0.113504  |        |                  |            |
| training_function_6f65d_00006 | RUNNING    | 10.128.5.68:3707  |           64 | [64, 64, 256, 256, 256, 256, 256] |             5 |             6 |       0.1  | [512, 496, 496, 248, 124, 124] | mae        | id138430740056 | ['adam', 0.001, 1.1e-07]  |          2 |         0.387176  |      1 |          132.664 |   0.467785 |
| training_function_6f65d_00007 | RUNNING    |                   |          128 | [16, 64, 128, 128, 256, 256, 256] |             6 |             3 |       0.1  | [248, 248]                     | mae        | id156001411337 | ['nadam', 0.001, 1.1e-07] |          1 |         0.265053  |        |                  |            |
| training_function_6f65d_00008 | RUNNING    | 10.128.5.67:12090 |           32 | [128, 256, 256]                   |             4 |             3 |       0.05 | [512, 496]                     | mse        | id144105194345 | ['nadam', 0.001, 1.1e-07] |          2 |         0.0972746 |      2 |          122.849 |   1.50056  |
| training_function_6f65d_00009 | RUNNING    |                   |           32 | [32, 64, 128, 256, 256, 256]      |             7 |             3 |       0.01 | [124, 124]                     | mse        | id183099367275 | ['adam', 0.001, 1.1e-07]  |          1 |         0.0839728 |        |                  |            |
| training_function_6f65d_00002 | TERMINATED |                   |           32 | [8, 8, 16]                        |             3 |             9 |       0.02 | [512, 512, 496, 496, 248]      | mse        | id133514865559 | ['adam', 0.001, 1.1e-07]  |          2 |         0.27324   |     17 |          167.227 |   0.267066 |
| training_function_6f65d_00005 | TERMINATED |                   |           32 | [16, 16, 64, 128, 256, 256, 256]  |             4 |             7 |       0.1  | [512, 512, 496, 124, 31]       | mae        | id184762249332 | ['nadam', 0.001, 1.1e-07] |          2 |         0.29407   |      8 |          166.331 |   1.01757  |
+-------------------------------+------------+-------------------+--------------+-----------------------------------+---------------+---------------+------------+--------------------------------+------------+----------------+---------------------------+------------+-------------------+--------+------------------+------------+
…
| Trial name                    | status     | loc               |   batch_size | conv_filter                       |   conv_kernel |   conv_repeat |   dropFrac | fc_dims                        | lossName   | myID           | optimizer                 |   pool_len |   reduceLR_factor |   iter |   total time (s) |   val_loss |
|-------------------------------+------------+-------------------+--------------+-----------------------------------+---------------+---------------+------------+--------------------------------+------------+----------------+---------------------------+------------+-------------------+--------+------------------+------------|
| training_function_6f65d_00000 | RUNNING    |                   |           32 | [64, 128, 256, 256, 256]          |             6 |             7 |       0.1  | [62, 31, 31]                   | mae        | id145572947346 | ['nadam', 0.001, 1.1e-07] |          1 |         0.0980078 |        |                  |            |
| training_function_6f65d_00001 | RUNNING    | 10.128.5.67:12082 |           64 | [32, 128, 256]                    |             4 |             7 |       0.02 | [496, 496, 248, 62]            | mse        | id174567675750 | ['adam', 0.001, 1.1e-07]  |          3 |         0.172305  |      4 |          187.667 |   0.279892 |
| training_function_6f65d_00004 | RUNNING    |                   |           64 | [8, 16, 32, 128, 128, 256, 256]   |             9 |             4 |       0.05 | [512, 512, 496, 496, 496, 496] | mae        | id168376834571 | ['adam', 0.001, 1.1e-07]  |          1 |         0.113504  |        |                  |            |
| training_function_6f65d_00006 | RUNNING    | 10.128.5.68:3707  |           64 | [64, 64, 256, 256, 256, 256, 256] |             5 |             6 |       0.1  | [512, 496, 496, 248, 124, 124] | mae        | id138430740056 | ['adam', 0.001, 1.1e-07]  |          2 |         0.387176  |      1 |          132.664 |   0.467785 |
| training_function_6f65d_00007 | RUNNING    |                   |          128 | [16, 64, 128, 128, 256, 256, 256] |             6 |             3 |       0.1  | [248, 248]                     | mae        | id156001411337 | ['nadam', 0.001, 1.1e-07] |          1 |         0.265053  |        |                  |            |
| training_function_6f65d_00008 | RUNNING    | 10.128.5.67:12090 |           32 | [128, 256, 256]                   |             4 |             3 |       0.05 | [512, 496]                     | mse        | id144105194345 | ['nadam', 0.001, 1.1e-07] |          2 |         0.0972746 |      2 |          122.849 |   1.50056  |
| training_function_6f65d_00009 | RUNNING    |                   |           32 | [32, 64, 128, 256, 256, 256]      |             7 |             3 |       0.01 | [124, 124]                     | mse        | id183099367275 | ['adam', 0.001, 1.1e-07]  |          1 |         0.0839728 |        |                  |            |
| training_function_6f65d_00002 | TERMINATED |                   |           32 | [8, 8, 16]                        |             3 |             9 |       0.02 | [512, 512, 496, 496, 248]      | mse        | id133514865559 | ['adam', 0.001, 1.1e-07]  |          2 |         0.27324   |     17 |          167.227 |   0.267066 |
| training_function_6f65d_00003 | TERMINATED |                   |           32 | [64, 256, 256, 256, 256]          |             8 |             6 |       0.02 | [512, 496, 496, 124, 124, 124] | mae        | id180408307445 | ['nadam', 0.001, 1.1e-07] |          3 |         0.460756  |      2 |          167.054 |   1.01265  |
| training_function_6f65d_00005 | TERMINATED |                   |           32 | [16, 16, 64, 128, 256, 256, 256]  |             4 |             7 |       0.1  | [512, 512, 496, 124, 31]       | mae        | id184762249332 | ['nadam', 0.001, 1.1e-07] |          2 |         0.29407   |      8 |          166.331 |   1.01757  |
+-------------------------------+------------+-------------------+--------------+-----------------------------------+---------------+---------------+------------+--------------------------------+------------+----------------+---------------------------+------------+-------------------+--------+------------------+------------+
…
| Trial name                    | status     | loc               |   batch_size | conv_filter                       |   conv_kernel |   conv_repeat |   dropFrac | fc_dims                        | lossName   | myID           | optimizer                 |   pool_len |   reduceLR_factor |   iter |   total time (s) |   val_loss |
|-------------------------------+------------+-------------------+--------------+-----------------------------------+---------------+---------------+------------+--------------------------------+------------+----------------+---------------------------+------------+-------------------+--------+------------------+------------|
| training_function_6f65d_00000 | RUNNING    |                   |           32 | [64, 128, 256, 256, 256]          |             6 |             7 |       0.1  | [62, 31, 31]                   | mae        | id145572947346 | ['nadam', 0.001, 1.1e-07] |          1 |         0.0980078 |        |                  |            |
| training_function_6f65d_00004 | RUNNING    |                   |           64 | [8, 16, 32, 128, 128, 256, 256]   |             9 |             4 |       0.05 | [512, 512, 496, 496, 496, 496] | mae        | id168376834571 | ['adam', 0.001, 1.1e-07]  |          1 |         0.113504  |        |                  |            |
| training_function_6f65d_00006 | RUNNING    | 10.128.5.68:3707  |           64 | [64, 64, 256, 256, 256, 256, 256] |             5 |             6 |       0.1  | [512, 496, 496, 248, 124, 124] | mae        | id138430740056 | ['adam', 0.001, 1.1e-07]  |          2 |         0.387176  |      1 |          132.664 |   0.467785 |
| training_function_6f65d_00007 | RUNNING    |                   |          128 | [16, 64, 128, 128, 256, 256, 256] |             6 |             3 |       0.1  | [248, 248]                     | mae        | id156001411337 | ['nadam', 0.001, 1.1e-07] |          1 |         0.265053  |        |                  |            |
| training_function_6f65d_00008 | RUNNING    | 10.128.5.67:12090 |           32 | [128, 256, 256]                   |             4 |             3 |       0.05 | [512, 496]                     | mse        | id144105194345 | ['nadam', 0.001, 1.1e-07] |          2 |         0.0972746 |      3 |          191.047 |   1.40147  |
| training_function_6f65d_00009 | RUNNING    | 10.128.5.69:15276 |           32 | [32, 64, 128, 256, 256, 256]      |             7 |             3 |       0.01 | [124, 124]                     | mse        | id183099367275 | ['adam', 0.001, 1.1e-07]  |          1 |         0.0839728 |      1 |          214.43  |   2.31658  |
| training_function_6f65d_00001 | TERMINATED |                   |           64 | [32, 128, 256]                    |             4 |             7 |       0.02 | [496, 496, 248, 62]            | mse        | id174567675750 | ['adam', 0.001, 1.1e-07]  |          3 |         0.172305  |      4 |          187.667 |   0.279892 |
| training_function_6f65d_00002 | TERMINATED |                   |           32 | [8, 8, 16]                        |             3 |             9 |       0.02 | [512, 512, 496, 496, 248]      | mse        | id133514865559 | ['adam', 0.001, 1.1e-07]  |          2 |         0.27324   |     17 |          167.227 |   0.267066 |
| training_function_6f65d_00003 | TERMINATED |                   |           32 | [64, 256, 256, 256, 256]          |             8 |             6 |       0.02 | [512, 496, 496, 124, 124, 124] | mae        | id180408307445 | ['nadam', 0.001, 1.1e-07] |          3 |         0.460756  |      2 |          167.054 |   1.01265  |
| training_function_6f65d_00005 | TERMINATED |                   |           32 | [16, 16, 64, 128, 256, 256, 256]  |             4 |             7 |       0.1  | [512, 512, 496, 124, 31]       | mae        | id184762249332 | ['nadam', 0.001, 1.1e-07] |          2 |         0.29407   |      8 |          166.331 |   1.01757  |
+-------------------------------+------------+-------------------+--------------+-----------------------------------+---------------+---------------+------------+--------------------------------+------------+----------------+---------------------------+------------+-------------------+--------+------------------+------------+
…
| Trial name                    | status     | loc               |   batch_size | conv_filter                       |   conv_kernel |   conv_repeat |   dropFrac | fc_dims                        | lossName   | myID           | optimizer                 |   pool_len |   reduceLR_factor |   iter |   total time (s) |   val_loss |
|-------------------------------+------------+-------------------+--------------+-----------------------------------+---------------+---------------+------------+--------------------------------+------------+----------------+---------------------------+------------+-------------------+--------+------------------+------------|
| training_function_6f65d_00000 | RUNNING    |                   |           32 | [64, 128, 256, 256, 256]          |             6 |             7 |       0.1  | [62, 31, 31]                   | mae        | id145572947346 | ['nadam', 0.001, 1.1e-07] |          1 |         0.0980078 |        |                  |            |
| training_function_6f65d_00004 | RUNNING    |                   |           64 | [8, 16, 32, 128, 128, 256, 256]   |             9 |             4 |       0.05 | [512, 512, 496, 496, 496, 496] | mae        | id168376834571 | ['adam', 0.001, 1.1e-07]  |          1 |         0.113504  |        |                  |            |
| training_function_6f65d_00006 | RUNNING    | 10.128.5.68:3707  |           64 | [64, 64, 256, 256, 256, 256, 256] |             5 |             6 |       0.1  | [512, 496, 496, 248, 124, 124] | mae        | id138430740056 | ['adam', 0.001, 1.1e-07]  |          2 |         0.387176  |      2 |          251.538 |   0.421657 |
| training_function_6f65d_00007 | RUNNING    |                   |          128 | [16, 64, 128, 128, 256, 256, 256] |             6 |             3 |       0.1  | [248, 248]                     | mae        | id156001411337 | ['nadam', 0.001, 1.1e-07] |          1 |         0.265053  |        |                  |            |
| training_function_6f65d_00009 | RUNNING    | 10.128.5.69:15276 |           32 | [32, 64, 128, 256, 256, 256]      |             7 |             3 |       0.01 | [124, 124]                     | mse        | id183099367275 | ['adam', 0.001, 1.1e-07]  |          1 |         0.0839728 |      1 |          214.43  |   2.31658  |
| training_function_6f65d_00001 | TERMINATED |                   |           64 | [32, 128, 256]                    |             4 |             7 |       0.02 | [496, 496, 248, 62]            | mse        | id174567675750 | ['adam', 0.001, 1.1e-07]  |          3 |         0.172305  |      4 |          187.667 |   0.279892 |
| training_function_6f65d_00002 | TERMINATED |                   |           32 | [8, 8, 16]                        |             3 |             9 |       0.02 | [512, 512, 496, 496, 248]      | mse        | id133514865559 | ['adam', 0.001, 1.1e-07]  |          2 |         0.27324   |     17 |          167.227 |   0.267066 |
| training_function_6f65d_00003 | TERMINATED |                   |           32 | [64, 256, 256, 256, 256]          |             8 |             6 |       0.02 | [512, 496, 496, 124, 124, 124] | mae        | id180408307445 | ['nadam', 0.001, 1.1e-07] |          3 |         0.460756  |      2 |          167.054 |   1.01265  |
| training_function_6f65d_00005 | TERMINATED |                   |           32 | [16, 16, 64, 128, 256, 256, 256]  |             4 |             7 |       0.1  | [512, 512, 496, 124, 31]       | mae        | id184762249332 | ['nadam', 0.001, 1.1e-07] |          2 |         0.29407   |      8 |          166.331 |   1.01757  |
| training_function_6f65d_00008 | TERMINATED |                   |           32 | [128, 256, 256]                   |             4 |             3 |       0.05 | [512, 496]                     | mse        | id144105194345 | ['nadam', 0.001, 1.1e-07] |          2 |         0.0972746 |      3 |          191.047 |   1.40147  |
+-------------------------------+------------+-------------------+--------------+-----------------------------------+---------------+---------------+------------+--------------------------------+------------+----------------+---------------------------+------------+-------------------+--------+------------------+------------+
…
| Trial name                    | status     | loc               |   batch_size | conv_filter                       |   conv_kernel |   conv_repeat |   dropFrac | fc_dims                        | lossName   | myID           | optimizer                 |   pool_len |   reduceLR_factor |   iter |   total time (s) |   val_loss |
|-------------------------------+------------+-------------------+--------------+-----------------------------------+---------------+---------------+------------+--------------------------------+------------+----------------+---------------------------+------------+-------------------+--------+------------------+------------|
| training_function_6f65d_00000 | RUNNING    | 10.128.5.68:3702  |           32 | [64, 128, 256, 256, 256]          |             6 |             7 |       0.1  | [62, 31, 31]                   | mae        | id145572947346 | ['nadam', 0.001, 1.1e-07] |          1 |         0.0980078 |      1 |          286.175 |   1.00603  |
| training_function_6f65d_00004 | RUNNING    |                   |           64 | [8, 16, 32, 128, 128, 256, 256]   |             9 |             4 |       0.05 | [512, 512, 496, 496, 496, 496] | mae        | id168376834571 | ['adam', 0.001, 1.1e-07]  |          1 |         0.113504  |        |                  |            |
| training_function_6f65d_00007 | RUNNING    |                   |          128 | [16, 64, 128, 128, 256, 256, 256] |             6 |             3 |       0.1  | [248, 248]                     | mae        | id156001411337 | ['nadam', 0.001, 1.1e-07] |          1 |         0.265053  |        |                  |            |
| training_function_6f65d_00009 | RUNNING    | 10.128.5.69:15276 |           32 | [32, 64, 128, 256, 256, 256]      |             7 |             3 |       0.01 | [124, 124]                     | mse        | id183099367275 | ['adam', 0.001, 1.1e-07]  |          1 |         0.0839728 |      1 |          214.43  |   2.31658  |
| training_function_6f65d_00001 | TERMINATED |                   |           64 | [32, 128, 256]                    |             4 |             7 |       0.02 | [496, 496, 248, 62]            | mse        | id174567675750 | ['adam', 0.001, 1.1e-07]  |          3 |         0.172305  |      4 |          187.667 |   0.279892 |
| training_function_6f65d_00002 | TERMINATED |                   |           32 | [8, 8, 16]                        |             3 |             9 |       0.02 | [512, 512, 496, 496, 248]      | mse        | id133514865559 | ['adam', 0.001, 1.1e-07]  |          2 |         0.27324   |     17 |          167.227 |   0.267066 |
| training_function_6f65d_00003 | TERMINATED |                   |           32 | [64, 256, 256, 256, 256]          |             8 |             6 |       0.02 | [512, 496, 496, 124, 124, 124] | mae        | id180408307445 | ['nadam', 0.001, 1.1e-07] |          3 |         0.460756  |      2 |          167.054 |   1.01265  |
| training_function_6f65d_00005 | TERMINATED |                   |           32 | [16, 16, 64, 128, 256, 256, 256]  |             4 |             7 |       0.1  | [512, 512, 496, 124, 31]       | mae        | id184762249332 | ['nadam', 0.001, 1.1e-07] |          2 |         0.29407   |      8 |          166.331 |   1.01757  |
| training_function_6f65d_00006 | TERMINATED |                   |           64 | [64, 64, 256, 256, 256, 256, 256] |             5 |             6 |       0.1  | [512, 496, 496, 248, 124, 124] | mae        | id138430740056 | ['adam', 0.001, 1.1e-07]  |          2 |         0.387176  |      2 |          251.538 |   0.421657 |
| training_function_6f65d_00008 | TERMINATED |                   |           32 | [128, 256, 256]                   |             4 |             3 |       0.05 | [512, 496]                     | mse        | id144105194345 | ['nadam', 0.001, 1.1e-07] |          2 |         0.0972746 |      3 |          191.047 |   1.40147  |
+-------------------------------+------------+-------------------+--------------+-----------------------------------+---------------+---------------+------------+--------------------------------+------------+----------------+---------------------------+------------+-------------------+--------+------------------+------------+
…
| Trial name                    | status     | loc              |   batch_size | conv_filter                       |   conv_kernel |   conv_repeat |   dropFrac | fc_dims                        | lossName   | myID           | optimizer                 |   pool_len |   reduceLR_factor |   iter |   total time (s) |   val_loss |
|-------------------------------+------------+------------------+--------------+-----------------------------------+---------------+---------------+------------+--------------------------------+------------+----------------+---------------------------+------------+-------------------+--------+------------------+------------|
| training_function_6f65d_00000 | RUNNING    | 10.128.5.68:3702 |           32 | [64, 128, 256, 256, 256]          |             6 |             7 |       0.1  | [62, 31, 31]                   | mae        | id145572947346 | ['nadam', 0.001, 1.1e-07] |          1 |         0.0980078 |      1 |          286.175 |   1.00603  |
| training_function_6f65d_00004 | RUNNING    | 10.128.5.70:9482 |           64 | [8, 16, 32, 128, 128, 256, 256]   |             9 |             4 |       0.05 | [512, 512, 496, 496, 496, 496] | mae        | id168376834571 | ['adam', 0.001, 1.1e-07]  |          1 |         0.113504  |      1 |          486.124 |   1.09458  |
| training_function_6f65d_00007 | RUNNING    |                  |          128 | [16, 64, 128, 128, 256, 256, 256] |             6 |             3 |       0.1  | [248, 248]                     | mae        | id156001411337 | ['nadam', 0.001, 1.1e-07] |          1 |         0.265053  |        |                  |            |
| training_function_6f65d_00001 | TERMINATED |                  |           64 | [32, 128, 256]                    |             4 |             7 |       0.02 | [496, 496, 248, 62]            | mse        | id174567675750 | ['adam', 0.001, 1.1e-07]  |          3 |         0.172305  |      4 |          187.667 |   0.279892 |
| training_function_6f65d_00002 | TERMINATED |                  |           32 | [8, 8, 16]                        |             3 |             9 |       0.02 | [512, 512, 496, 496, 248]      | mse        | id133514865559 | ['adam', 0.001, 1.1e-07]  |          2 |         0.27324   |     17 |          167.227 |   0.267066 |
| training_function_6f65d_00003 | TERMINATED |                  |           32 | [64, 256, 256, 256, 256]          |             8 |             6 |       0.02 | [512, 496, 496, 124, 124, 124] | mae        | id180408307445 | ['nadam', 0.001, 1.1e-07] |          3 |         0.460756  |      2 |          167.054 |   1.01265  |
| training_function_6f65d_00005 | TERMINATED |                  |           32 | [16, 16, 64, 128, 256, 256, 256]  |             4 |             7 |       0.1  | [512, 512, 496, 124, 31]       | mae        | id184762249332 | ['nadam', 0.001, 1.1e-07] |          2 |         0.29407   |      8 |          166.331 |   1.01757  |
| training_function_6f65d_00006 | TERMINATED |                  |           64 | [64, 64, 256, 256, 256, 256, 256] |             5 |             6 |       0.1  | [512, 496, 496, 248, 124, 124] | mae        | id138430740056 | ['adam', 0.001, 1.1e-07]  |          2 |         0.387176  |      2 |          251.538 |   0.421657 |
| training_function_6f65d_00008 | TERMINATED |                  |           32 | [128, 256, 256]                   |             4 |             3 |       0.05 | [512, 496]                     | mse        | id144105194345 | ['nadam', 0.001, 1.1e-07] |          2 |         0.0972746 |      3 |          191.047 |   1.40147  |
| training_function_6f65d_00009 | TERMINATED |                  |           32 | [32, 64, 128, 256, 256, 256]      |             7 |             3 |       0.01 | [124, 124]                     | mse        | id183099367275 | ['adam', 0.001, 1.1e-07]  |          1 |         0.0839728 |      2 |          368.166 |   2.08471  |
+-------------------------------+------------+------------------+--------------+-----------------------------------+---------------+---------------+------------+--------------------------------+------------+----------------+---------------------------+------------+-------------------+--------+------------------+------------+
…
| Trial name                    | status     | loc               |   batch_size | conv_filter                       |   conv_kernel |   conv_repeat |   dropFrac | fc_dims                        | lossName   | myID           | optimizer                 |   pool_len |   reduceLR_factor |   iter |   total time (s) |   val_loss |
|-------------------------------+------------+-------------------+--------------+-----------------------------------+---------------+---------------+------------+--------------------------------+------------+----------------+---------------------------+------------+-------------------+--------+------------------+------------|
| training_function_6f65d_00004 | RUNNING    | 10.128.5.70:9482  |           64 | [8, 16, 32, 128, 128, 256, 256]   |             9 |             4 |       0.05 | [512, 512, 496, 496, 496, 496] | mae        | id168376834571 | ['adam', 0.001, 1.1e-07]  |          1 |         0.113504  |      2 |          761.714 |   1.27504  |
| training_function_6f65d_00007 | RUNNING    | 10.128.5.69:15277 |          128 | [16, 64, 128, 128, 256, 256, 256] |             6 |             3 |       0.1  | [248, 248]                     | mae        | id156001411337 | ['nadam', 0.001, 1.1e-07] |          1 |         0.265053  |      1 |          491.676 |   1.0004   |
| training_function_6f65d_00000 | TERMINATED |                   |           32 | [64, 128, 256, 256, 256]          |             6 |             7 |       0.1  | [62, 31, 31]                   | mae        | id145572947346 | ['nadam', 0.001, 1.1e-07] |          1 |         0.0980078 |      2 |          496.874 |   0.980639 |
| training_function_6f65d_00001 | TERMINATED |                   |           64 | [32, 128, 256]                    |             4 |             7 |       0.02 | [496, 496, 248, 62]            | mse        | id174567675750 | ['adam', 0.001, 1.1e-07]  |          3 |         0.172305  |      4 |          187.667 |   0.279892 |
| training_function_6f65d_00002 | TERMINATED |                   |           32 | [8, 8, 16]                        |             3 |             9 |       0.02 | [512, 512, 496, 496, 248]      | mse        | id133514865559 | ['adam', 0.001, 1.1e-07]  |          2 |         0.27324   |     17 |          167.227 |   0.267066 |
| training_function_6f65d_00003 | TERMINATED |                   |           32 | [64, 256, 256, 256, 256]          |             8 |             6 |       0.02 | [512, 496, 496, 124, 124, 124] | mae        | id180408307445 | ['nadam', 0.001, 1.1e-07] |          3 |         0.460756  |      2 |          167.054 |   1.01265  |
| training_function_6f65d_00005 | TERMINATED |                   |           32 | [16, 16, 64, 128, 256, 256, 256]  |             4 |             7 |       0.1  | [512, 512, 496, 124, 31]       | mae        | id184762249332 | ['nadam', 0.001, 1.1e-07] |          2 |         0.29407   |      8 |          166.331 |   1.01757  |
| training_function_6f65d_00006 | TERMINATED |                   |           64 | [64, 64, 256, 256, 256, 256, 256] |             5 |             6 |       0.1  | [512, 496, 496, 248, 124, 124] | mae        | id138430740056 | ['adam', 0.001, 1.1e-07]  |          2 |         0.387176  |      2 |          251.538 |   0.421657 |
| training_function_6f65d_00008 | TERMINATED |                   |           32 | [128, 256, 256]                   |             4 |             3 |       0.05 | [512, 496]                     | mse        | id144105194345 | ['nadam', 0.001, 1.1e-07] |          2 |         0.0972746 |      3 |          191.047 |   1.40147  |
| training_function_6f65d_00009 | TERMINATED |                   |           32 | [32, 64, 128, 256, 256, 256]      |             7 |             3 |       0.01 | [124, 124]                     | mse        | id183099367275 | ['adam', 0.001, 1.1e-07]  |          1 |         0.0839728 |      2 |          368.166 |   2.08471  |
+-------------------------------+------------+-------------------+--------------+-----------------------------------+---------------+---------------+------------+--------------------------------+------------+----------------+---------------------------+------------+-------------------+--------+------------------+------------+
…
| Trial name                    | status     | loc               |   batch_size | conv_filter                       |   conv_kernel |   conv_repeat |   dropFrac | fc_dims                        | lossName   | myID           | optimizer                 |   pool_len |   reduceLR_factor |   iter |   total time (s) |   val_loss |
|-------------------------------+------------+-------------------+--------------+-----------------------------------+---------------+---------------+------------+--------------------------------+------------+----------------+---------------------------+------------+-------------------+--------+------------------+------------|
| training_function_6f65d_00007 | RUNNING    | 10.128.5.69:15277 |          128 | [16, 64, 128, 128, 256, 256, 256] |             6 |             3 |       0.1  | [248, 248]                     | mae        | id156001411337 | ['nadam', 0.001, 1.1e-07] |          1 |         0.265053  |      2 |         1018.74  |   0.988094 |
| training_function_6f65d_00000 | TERMINATED |                   |           32 | [64, 128, 256, 256, 256]          |             6 |             7 |       0.1  | [62, 31, 31]                   | mae        | id145572947346 | ['nadam', 0.001, 1.1e-07] |          1 |         0.0980078 |      2 |          496.874 |   0.980639 |
| training_function_6f65d_00001 | TERMINATED |                   |           64 | [32, 128, 256]                    |             4 |             7 |       0.02 | [496, 496, 248, 62]            | mse        | id174567675750 | ['adam', 0.001, 1.1e-07]  |          3 |         0.172305  |      4 |          187.667 |   0.279892 |
| training_function_6f65d_00002 | TERMINATED |                   |           32 | [8, 8, 16]                        |             3 |             9 |       0.02 | [512, 512, 496, 496, 248]      | mse        | id133514865559 | ['adam', 0.001, 1.1e-07]  |          2 |         0.27324   |     17 |          167.227 |   0.267066 |
| training_function_6f65d_00003 | TERMINATED |                   |           32 | [64, 256, 256, 256, 256]          |             8 |             6 |       0.02 | [512, 496, 496, 124, 124, 124] | mae        | id180408307445 | ['nadam', 0.001, 1.1e-07] |          3 |         0.460756  |      2 |          167.054 |   1.01265  |
| training_function_6f65d_00004 | TERMINATED |                   |           64 | [8, 16, 32, 128, 128, 256, 256]   |             9 |             4 |       0.05 | [512, 512, 496, 496, 496, 496] | mae        | id168376834571 | ['adam', 0.001, 1.1e-07]  |          1 |         0.113504  |      2 |          761.714 |   1.27504  |
| training_function_6f65d_00005 | TERMINATED |                   |           32 | [16, 16, 64, 128, 256, 256, 256]  |             4 |             7 |       0.1  | [512, 512, 496, 124, 31]       | mae        | id184762249332 | ['nadam', 0.001, 1.1e-07] |          2 |         0.29407   |      8 |          166.331 |   1.01757  |
| training_function_6f65d_00006 | TERMINATED |                   |           64 | [64, 64, 256, 256, 256, 256, 256] |             5 |             6 |       0.1  | [512, 496, 496, 248, 124, 124] | mae        | id138430740056 | ['adam', 0.001, 1.1e-07]  |          2 |         0.387176  |      2 |          251.538 |   0.421657 |
| training_function_6f65d_00008 | TERMINATED |                   |           32 | [128, 256, 256]                   |             4 |             3 |       0.05 | [512, 496]                     | mse        | id144105194345 | ['nadam', 0.001, 1.1e-07] |          2 |         0.0972746 |      3 |          191.047 |   1.40147  |
| training_function_6f65d_00009 | TERMINATED |                   |           32 | [32, 64, 128, 256, 256, 256]      |             7 |             3 |       0.01 | [124, 124]                     | mse        | id183099367275 | ['adam', 0.001, 1.1e-07]  |          1 |         0.0839728 |      2 |          368.166 |   2.08471  |
+-------------------------------+------------+-------------------+--------------+-----------------------------------+---------------+---------------+------------+--------------------------------+------------+----------------+---------------------------+------------+-------------------+--------+------------------+------------+
…
